best_2dcnn_model.pth (torch, 159526 bytes, 16 tensors)

conv1.weight f4 [16, 3, 3, 3]
0	0x3e2945ce	0.16530535
1	0x3d95452e	0.072885856
2	0x3e36207a	0.17785826
3	0xbdbde72a	-0.09272607
4	0xbdc72139	-0.097231336
5	0x3cedbe85	0.02902151
6	0xbe0ea5d2	-0.13930443
7	0x3d5a4d5b	0.05329643
8	0xbe3f73e2	-0.1869655
9	0x3e0bf706	0.1366845
10	0x3cc604c4	0.024172194
11	0xba82365e	-0.0009934416
12	0x3da93972	0.0826291
13	0x3cdc74e6	0.02691121
14	0xbe13b267	-0.14423524
15	0x3da985f9	0.082775064
16	0xbdf9bca2	-0.12194182
17	0xbe0188e0	-0.1264987
18	0x3e5250d0	0.2053864
19	0xbdff8529	-0.1247657
20	0x3e17a2a2	0.14808133
21	0x3d33f93e	0.043938868
22	0x3e40d04d	0.1882946
23	0x3e202623	0.15639548
24	0xbdbc8e8d	-0.09206877
25	0xbdcb3838	-0.09922832
26	0xbe07cc4b	-0.13261525
27	0x3d0e2af1	0.03470892
28	0x3db3065c	0.08741447
29	0xbcfdc0e8	-0.030975774
30	0xbd64c2ff	-0.055850025
31	0x3cf74984	0.030186422
32	0x3d268423	0.04065336
33	0xbd1a1afd	-0.037623394
34	0x3d3cf31d	0.04613029
35	0x3e0086d8	0.12551439
36	0x3cda46c2	0.026645068
37	0xbe12ccd8	-0.14335954
38	0xbdacbde1	-0.08434654
39	0xbcdba57e	-0.026812311
40	0x3da9089f	0.082535975
41	0x3dc73817	0.09727495
42	0xbca652c6	-0.020303141
43	0xbdcfabcb	-0.10140189
44	0x3e0ac718	0.1355251
45	0x3dcd5515	0.10025994
46	0xbd07560f	-0.033041056
47	0xbe099fd0	-0.1343987
48	0x3d29df74	0.041472867
49	0x3e32ee03	0.17473607
50	0x3e86ae88	0.26305032
51	0xbe3d5fcf	-0.1849358
52	0xbd71b15b	-0.05900703
53	0x3e4d59ff	0.20053862
54	0xbd5be8a6	-0.053688668
55	0xbdf946bd	-0.121716954
56	0xbd7acf12	-0.061232634
57	0xbdc7cba4	-0.09755638
58	0xbd51f76e	-0.051261358
59	0xbdea1e48	-0.11431557
60	0x3d5c2f94	0.05375631
61	0xbdd1d6f5	-0.10246078
62	0x3d9ad893	0.075608395
63	0x3d1fea0e	0.03904157
64	0xbd199c24	-0.037502423
65	0xbdbbf68b	-0.09177884
66	0xbde79208	-0.1130715
67	0x3db2ac67	0.087242894
68	0x3e05d7bf	0.13070582
69	0xbdb6551a	-0.089029506
70	0x3de61e4e	0.11236249
71	0xbdb5e791	-0.088820584
72	0xbe46c230	-0.19410014
73	0xbe4bf500	-0.19917679
74	0x3b61b1bc	0.0034438213
75	0xbca6f59c	-0.020380788
76	0x3e30dd2f	0.17271875
77	0xbe15d505	-0.14632042
78	0x3c6f16e0	0.014592856
79	0x3e07f7e3	0.13278155
80	0x3e217b2d	0.15769644
81	0x3e39f123	0.18158393
82	0x3da4295c	0.08015701
83	0x3dfd5ea0	0.12371564
84	0x3df6f06e	0.12057577
85	0xbe44ac4f	-0.19206356
86	0xbd9fb9de	-0.07799123
87	0xbe5af8b9	-0.21383943
88	0xbe000bb1	-0.1250446
89	0x3db121f0	0.08649051
90	0x3d6a6d1f	0.057232972
91	0xbdcea2a0	-0.10089612
92	0xbe0541f4	-0.1301344
93	0xbe101a05	-0.14072426
94	0x3e172622	0.1476064
95	0xbe2e65b3	-0.17030983
96	0xbd08ce5c	-0.033399925
97	0x3ca30c1e	0.019903239
98	0xbcd30275	-0.025758008
99	0x3d9f0d79	0.077662416
100	0x3df0ad05	0.11751751
101	0xbd86935d	-0.06571076
102	0xbe1b676e	-0.15176174
103	0x3e4129e8	0.18863642
104	0xbe2ef824	-0.17086846
105	0x3e4013a6	0.18757495
106	0xbda74814	-0.08168045
107	0x3e0dd0dc	0.13849205
108	0x3e1d8d2a	0.15385881
109	0xbe4c023f	-0.19922732
110	0xbd85b134	-0.065279394
111	0x3e444c5f	0.19169758
112	0xbdcf68ae	-0.10127388
113	0x3da128fc	0.07869145
114	0x3aa1e702	0.0012352171
115	0xbd8d2885	-0.06892494
116	0x3e33b626	0.17549953
117	0xbd8be6ab	-0.06831106
118	0xbdcafeb9	-0.09911866
119	0x3d9d9f71	0.07696427
120	0x3e301622	0.17195943
121	0xbe0d1df8	-0.13780963
122	0x3d898fb9	0.06716866
123	0xbdc3197e	-0.095263466
124	0x3dc23032	0.09481849
125	0xbcede8d1	-0.02904168
126	0x3c591c33	0.013251352
127	0xbd5e2eb7	-0.05424377
128	0xbe060c40	-0.1309061
129	0x3e393d19	0.18089713
130	0x3de799b2	0.11308612
131	0x3cdd943a	0.027048219
132	0xbda69db3	-0.081355475
133	0xbdbed928	-0.09318763
134	0xbc8c34e8	-0.017115071
135	0xbdee08ac	-0.11622748
136	0x3e02bab9	0.12766542
137	0xbddc1f5b	-0.10748168
138	0x3dcde63e	0.10053681
139	0x3deba212	0.11505522
140	0xbdadac6d	-0.08480153
141	0xbe393d9a	-0.18089905
142	0x3da0557f	0.07828807
143	0xbd943b50	-0.072378755
144	0xbc9793a3	-0.018503016
145	0xbd19cf95	-0.03755148
146	0xbd24b847	-0.040214803
147	0xbbe59a34	-0.007006908
148	0xbd690be0	-0.05689609
149	0x3dbcbdfd	0.09215925
150	0x3dd2f548	0.1030069
151	0xbd8f4c75	-0.06997005
152	0x3c49fcef	0.0123283705
153	0xbd30035a	-0.042971946
154	0x3e01470d	0.1262476
155	0x3e055301	0.13019945
156	0x3da247ae	0.07923828
157	0xba842294	-0.0010081106
158	0xbe398a51	-0.1811917
159	0x3dd8cafd	0.10585592
160	0xbe2dade7	-0.1696087
161	0x3d31391a	0.043267347
162	0xbd800923	-0.06251743
163	0x3d025c15	0.031826098
164	0xbdb2f48b	-0.08738049
165	0xbdbc8909	-0.09205825
166	0x3d36ab99	0.044597242
167	0x3de71dcb	0.112849794
168	0x3e162133	0.14661102
169	0x3e0e7e15	0.13915284
170	0x3dcd07da	0.10011263
171	0x3dac5656	0.08414905
172	0x3e1d4ce6	0.15361366
173	0xbe13f940	-0.1445055
174	0x3db76ae0	0.08955932
175	0xbe249de3	-0.16075854
176	0xbcf3625f	-0.029709993
177	0xba965be3	-0.0011471476
178	0xbc8a671b	-0.016894868
179	0xbbdf67ef	-0.00681781
180	0x3dc15eca	0.09441908
181	0x3bfb606a	0.0076714056
182	0xbc8b8824	-0.01703269
183	0xbd9bc08c	-0.07605085
184	0xbe2df51f	-0.16988038
185	0x3cd70fc5	0.026252637
186	0x3e717dba	0.23583117
187	0xbe156a2d	-0.14591284
188	0x3dcee6b1	0.10102595
189	0xbbbc4f9e	-0.005746796
190	0xbdd7e3d6	-0.10541503
191	0xbdb43111	-0.08798421
192	0xbdf22d74	-0.11825076
193	0x3e191854	0.14950687
194	0x3df25288	0.11832148
195	0x3d1df5e7	0.03856459
196	0xbd83e4b5	-0.06440107
197	0xbaf9e821	-0.0019066372
198	0xbda90698	-0.08253211
199	0x3da4ff04	0.08056453
200	0xba32af22	-0.0006816258
201	0x3c26c0e2	0.010177823
202	0x3ccff391	0.025384696
203	0x3c09d511	0.008412615
204	0x3e10f13e	0.14154527
205	0xbe505982	-0.20346645
206	0x3c06e75c	0.008233871
207	0xbe0b79ff	-0.13620757
208	0x3e5e01ee	0.21680424
209	0xbdecb769	-0.1155842
210	0xbd8dbef9	-0.06921191
211	0x3d5d90b0	0.054093063
212	0xbe7be51b	-0.24599116
213	0x3e70f455	0.23530705
214	0x3e3d79f7	0.18503557
215	0xbe47ce29	-0.19512238
216	0x3d7e412c	0.06207387
217	0xbe28c1d9	-0.16480197
218	0x3d9f304b	0.07772883
219	0xbe1133e3	-0.1417995
220	0xbd85b308	-0.06528288
221	0xbdfa5bab	-0.122245155
222	0xbdb9aa83	-0.09065726
223	0xbda9761a	-0.08274479
224	0xbe19d5c1	-0.15022947
225	0x3c84f7f3	0.016231513
226	0x3df54e86	0.11977868
227	0xbd6a28ce	-0.05716782
228	0x3d1aa719	0.037757013
229	0x3df65046	0.1202703
230	0xbe26ed73	-0.16301517
231	0xbe0966b4	-0.13418084
232	0x3da1794d	0.078844644
233	0xbd1d9353	-0.038470577
234	0x3e77399c	0.2414307
235	0xbbdb4097	-0.0066910493
236	0xbe1dffd3	-0.1542962
237	0x3d6d84ec	0.057988092
238	0xbdcab8a5	-0.098984994
239	0xbe506fd8	-0.20355165
240	0x3dca661f	0.09882759
241	0x3d7fb351	0.06242687
242	0x3e155feb	0.14587371
243	0xbdbb7e95	-0.09155003
244	0xbdef2b37	-0.116781645
245	0x3cab8ef1	0.020942183
246	0xbdd38574	-0.103281885
247	0x3c8490ef	0.016182391
248	0xbd114ce6	-0.035473727
249	0x3cacc6de	0.021090921
250	0x3c5a3b65	0.013319825
251	0xbda2821c	-0.07934973
252	0xbe171861	-0.14755394
253	0x3d047bd2	0.032344647
254	0x3d0554d0	0.032551587
255	0x3d404af6	0.04694649

conv1.bias f4 [16]
0	0x39061641	0.00012787526
1	0x37939ee2	1.7597751e-05
2	0xb999bbb7	-0.00029322293
3	0x3872c502	5.7880774e-05
4	0xb90d0038	-0.0001344689
5	0xb7f0bf86	-2.8699415e-05
6	0xb92d9a46	-0.00016556037
7	0x377b3bd8	1.4974699e-05
8	0xb90950a8	-0.00013095385
9	0xb91f437a	-0.00015188559
10	0xb782839c	-1.5558493e-05
11	0x3a8cd8cf	0.0010745766
12	0xb935a840	-0.00017324183
13	0x391ee008	0.00015151512
14	0xb90fdeb8	-0.00013720512
15	0xb9cfc526	-0.00039629004

bn1.weight f4 [16]
0	0x3f7495ed	0.9554127
1	0x3f780a52	0.9689075
2	0x3f8400b0	1.031271
3	0x3f6bf305	0.92167693
4	0x3f7e608d	0.99366075
5	0x3f765876	0.9622873
6	0x3f7456db	0.9544503
7	0x3f94e576	1.1632526
8	0x3f83befc	1.0292659
9	0x3f78442f	0.9697904
10	0x3f617f65	0.88085014
11	0x3f8429ae	1.032522
12	0x3f7f15fd	0.99642926
13	0x3f80337e	1.0015714
14	0x3f7dbf27	0.991198
15	0x3f81295d	1.0090748

bn1.bias f4 [16]
0	0xbd3afaa6	-0.045649193
1	0xbc8e345f	-0.017358957
2	0xbd361392	-0.044452257
3	0xbc81dddc	-0.015852861
4	0xbc20e3be	-0.009819923
5	0xbd12e7db	-0.035865646
6	0xbd182a71	-0.03714985
7	0xbd03d52c	-0.03218572
8	0xbc9c6ef1	-0.01909587
9	0xbcbb9454	-0.022897877
10	0xbdc4c25b	-0.09607383
11	0xbd1a2827	-0.03763595
12	0xbc8f8d09	-0.017523305
13	0xbddbb92c	-0.10728678
14	0xbd62d03d	-0.055374373
15	0xbd605a9a	-0.054773904

bn1.running_mean f4 [16]
0	0xbdb0aab2	-0.086263075
1	0xbe83b7a7	-0.25726053
2	0x3e8f6270	0.2800479
3	0x3d95b673	0.0731019
4	0xbd6b7d3a	-0.057492472
5	0x3d348a9d	0.044077504
6	0xbe37ec88	-0.17961323
7	0x3d8085ea	0.06275542
8	0x3e94ec78	0.2908666
9	0x3e355a46	0.17710218
10	0x3e26352e	0.16231224
11	0xbd9a454e	-0.0753275
12	0xbe8881c6	-0.2666151
13	0x3dc56be7	0.09639721
14	0x3dbb945c	0.09159157
15	0xbd435260	-0.04768598

bn1.running_var f4 [16]
0	0x3da5b269	0.0809067
1	0x3d9c5a5f	0.076344244
2	0x3d96b167	0.073580556
3	0x3d987cf4	0.07445708
4	0x3cc29f5a	0.023757625
5	0x3c908b68	0.0176446
6	0x3d331f09	0.04373077
7	0x3d21b61b	0.03948031
8	0x3de76c7d	0.11299989
9	0x3d430913	0.047616076
10	0x3e1d2843	0.1534739
11	0x3cfe7f38	0.031066522
12	0x3e29283d	0.16519256
13	0x3e03923f	0.12848757
14	0x3d4bd325	0.04976191
15	0x3cf5276c	0.029926024

conv2.weight f4 [32, 16, 3, 3]
0	0xbd0735c8	-0.033010274
1	0xbc9c4e77	-0.019080384
2	0xbd4a3a11	-0.049371783
3	0xbcb4b957	-0.022061033
4	0xbd4463d6	-0.047946773
5	0x3ccc36df	0.024928508
6	0x3d2180a3	0.03942932
7	0xbd2769c4	-0.04087235
8	0xbc00b06c	-0.007854562
9	0xbc9e58af	-0.019329397
10	0xbc6d7a99	-0.014494562
11	0xbdc4bae7	-0.09605961
12	0x3c3ed426	0.01164726
13	0xbd038ca3	-0.032116544
14	0x3cb7ba3a	0.022427667
15	0x3c69da78	0.014273278
16	0xbca0d0ce	-0.019630816
17	0xbd067d56	-0.032834373
18	0xbd7850d2	-0.06062395
19	0xbd7dcea6	-0.061964653
20	0x3b5e88c1	0.0033956023
21	0xbd6549fb	-0.055978756
22	0x3c88a663	0.016680902
23	0xbd05b954	-0.032647446
24	0xbd631056	-0.0554355
25	0xbb0b9bf6	-0.0021302677
26	0xbc5453f1	-0.012959466
27	0xbd6d705e	-0.05796849
28	0xbb221e34	-0.002473724
29	0xbd5f69f0	-0.05454439
30	0xbd059992	-0.03261716
31	0xbd7b3853	-0.06133301
32	0xbd15edfc	-0.036603913
33	0x3d674820	0.056465268
34	0x3d039e3f	0.032133337
35	0x3d902a8a	0.07039364
36	0xbc8bf214	-0.017083205
37	0x3d0e68f6	0.034768067
38	0x3dbd94c9	0.09256894
39	0xbd088f63	-0.03333987
40	0xbc9b6cf4	-0.018972851
41	0xbbc842f8	-0.006111499
42	0x3d8d364c	0.06895122
43	0xbd8654fc	-0.06559178
44	0xbd821878	-0.06352323
45	0x3d67aa8b	0.056559127
46	0xbb74307a	-0.003726034
47	0x3d4e5382	0.050372608
48	0x3c20326d	0.009777647
49	0x3d1035e2	0.035207637
50	0xbda4450b	-0.080209814
51	0xbd09ff1d	-0.03369056
52	0x3d8b5284	0.06802848
53	0xbcb73502	-0.022364143
54	0xbcc7bc0f	-0.024381666
55	0xbcdfd363	-0.027322477
56	0x3d2534e7	0.040333655
57	0x3d6d9991	0.05800778
58	0x3c638104	0.01388574
59	0x3d33187a	0.043724515
60	0x3d182cd4	0.037152126
61	0xbccb0a42	-0.024785165
62	0xbdd19bdc	-0.10234806
63	0xbd17272a	-0.036902584
64	0xbd49be0e	-0.049253516
65	0xbcce09da	-0.025151182
66	0xbe062014	-0.13098174
67	0x3bf47445	0.0074601495
68	0xbd3e8c01	-0.046520237
69	0xbd8d48de	-0.06898664
70	0x3d8e9d4b	0.06963595
71	0x3ddf5584	0.10904983
72	0x3d2b5a28	0.041834027
73	0x3c8bd4e2	0.017069284
74	0xbb9f4d24	-0.004861491
75	0xbdb42fd0	-0.08798182
76	0x3cd01e06	0.025404941
77	0xbd2d9f28	-0.04238811
78	0xbd7daadb	-0.06193052
79	0x3d945e2f	0.072445266
80	0x3c92aa32	0.017903421
81	0xbdb6d7a3	-0.08927848
82	0xbd053bda	-0.032527782
83	0x3c929e23	0.017897671
84	0xbd7b401a	-0.06134043
85	0xbd77cc35	-0.06049748
86	0xbdbecdeb	-0.093166195
87	0x3d904703	0.070447944
88	0x3c10c5c6	0.008836215
89	0xbd8a57d3	-0.067550324
90	0xbcd9a2a0	-0.026566803
91	0xbd255e58	-0.040373176
92	0x3d55ed6c	0.052228376
93	0xbd3f4dba	-0.046704985
94	0x3cebdb34	0.028791048
95	0xbdc44c0d	-0.09584818
96	0xbdae35b5	-0.085063376
97	0x3c42d2b8	0.01189106
98	0xbbf892b7	-0.007585849
99	0x3c4db610	0.012555614
100	0x3b8a64cd	0.004223442
101	0xbd76ce4e	-0.06025534
102	0xbd38739e	-0.045032136
103	0xbb38a777	-0.0028175989
104	0x3cc5e2b3	0.02415595
105	0xbd889112	-0.06668295
106	0xbd633ee5	-0.055479903
107	0xbd9afb04	-0.07567409
108	0xbd4e1418	-0.05031213
109	0x3c1ceb6b	0.009577612
110	0xbd035eec	-0.032072946
111	0xbc2dcca2	-0.01060787
112	0x3bb03f2b	0.005378624
113	0xbbb92292	-0.005649873
114	0xbc4e693b	-0.012598331
115	0xbcfc0efa	-0.03076886
116	0x3c693711	0.01423432
117	0x3cf989fb	0.030461302
118	0xb96e6ae8	-0.00022737274
119	0xbda646d6	-0.0811898
120	0x3d9adfeb	0.0756224
121	0x3afd5a0a	0.0019329202
122	0xbd410bf1	-0.04713053
123	0x3d6071c5	0.054796
124	0x3d8eed33	0.06978836
125	0xbca863c0	-0.020555377
126	0x3d99453c	0.074839085
127	0xbd9d3533	-0.076761626
128	0xbbea5a26	-0.00715186
129	0xbd48e3e2	-0.04904545
130	0x3d8c53f1	0.06851948
131	0xbd7ace9a	-0.061232187
132	0xbd8374a5	-0.064187326
133	0x3de1dcfe	0.11028479
134	0xbcb9eaf6	-0.022695046
135	0xbda08d42	-0.07839443
136	0x3c250ff6	0.010074606
137	0xbd83c17e	-0.0643339
138	0x3dbfe421	0.09369684
139	0x3d3e94df	0.046528693
140	0x3d541e69	0.051786814
141	0xbcf5a04e	-0.029983666
142	0xbd66ffa0	-0.056396127
143	0xbd5d1b71	-0.05398125
144	0xbd9d68d7	-0.07686012
145	0xbdb5035a	-0.0883853
146	0x3c8b58c6	0.017010104
147	0xbd50b328	-0.050952107
148	0x3be6ebfa	0.0070471736
149	0x3c8b73ec	0.01702305
150	0x3cac207d	0.021011585
151	0x3d8fa7ca	0.07014425
152	0x3b190db8	0.0023354124
153	0x3cc59f05	0.024123678
154	0xbd97905b	-0.074005805
155	0xbd5a86cf	-0.05335122
156	0x3d1d6775	0.038428742
157	0x3d7c547a	0.061604
158	0x3db68c45	0.08913473
159	0x3c8d1473	0.017221665
160	0xbd3e85d0	-0.046514332
161	0xb7920a20	-1.7409271e-05
162	0x3d83850d	0.06421862
163	0x3db809be	0.08986233
164	0xbd45aaeb	-0.048258703
165	0x3da36ad1	0.07979358
166	0x3e1d4167	0.1535698
167	0x3dbdc30a	0.092657164
168	0x3c84630f	0.016160516
169	0x3ceff407	0.029291166
170	0x3acbf524	0.0015560728
171	0xbcbd664b	-0.023120066
172	0x3cf3ae35	0.029746154
173	0x3c2868d8	0.010278903
174	0xbbdd80c1	-0.0067597334
175	0x3d57f24f	0.052721318
176	0xbdb55b66	-0.088553235
177	0xbd486509	-0.04892448
178	0xbd38ef38	-0.04515001
179	0x3d2e7938	0.042596072
180	0xbc13a91e	-0.009012489
181	0xbcdc46c9	-0.026889222
182	0x3d6b2d80	0.05741644
183	0x3d90b2b1	0.07065333
184	0x3d89beb5	0.067258276
185	0x3d3d1a9f	0.046167966
186	0xbb3c2172	-0.0028706458
187	0x3cd56496	0.02604894
188	0xbd303525	-0.043019433
189	0xbd06ec14	-0.032939985
190	0x3b0a9afa	0.0021149502
191	0xbcaf8fc8	-0.021430865
192	0xbcad9a86	-0.021191847
193	0x3d8d6e01	0.06905747
194	0x3da351e1	0.079746015
195	0x3da515ed	0.08060823
196	0x3c8942d6	0.016755503
197	0xbbc9883b	-0.006150273
198	0x3ceaf60a	0.028681774
199	0xbd2c4343	-0.042056333
200	0x3d893ade	0.06700681
201	0xbc403ff4	-0.011733998
202	0x3d787895	0.06066187
203	0x3d91dd1f	0.071222536
204	0xbdae673d	-0.08515785
205	0x3ceb4781	0.02872062
206	0xbd849ae8	-0.064748585
207	0xbe057505	-0.1303292
208	0xbd637c5f	-0.05553853
209	0xbd23d61b	-0.03999911
210	0xbc395f32	-0.0113142
211	0xbcb9d24a	-0.022683281
212	0xbde7d3ce	-0.113196954
213	0xbd8069f3	-0.06270208
214	0xbd7afe85	-0.061277885
215	0xbd1e2800	-0.038612366
216	0x3d077058	0.033066124
217	0xbca02b3a	-0.019551862
218	0x3dfd47c8	0.12367207
219	0xbcb14fa6	-0.021644425
220	0xbcd4310c	-0.025902294
221	0xbdc49f95	-0.0960075
222	0x3d58551f	0.052815553
223	0x3d685372	0.056720205
224	0xbd523c3b	-0.05132697
225	0xbd80c64a	-0.06287821
226	0x3d903f59	0.070433326
227	0x3c8e90b5	0.017402986
228	0xbc9a85f0	-0.018862695
229	0x3c9c34df	0.01906818
230	0x3d98dcb2	0.07463969
231	0xbcd8402c	-0.026397787
232	0x3d4597d4	0.048240498
233	0x3c62f4e3	0.013852331
234	0xbd072446	-0.032993577
235	0xbc101a9e	-0.0087954085
236	0x3cfa270f	0.030536203
237	0xbd33471d	-0.04376899
238	0xbda288fb	-0.07936283
239	0x3b30bcfd	0.0026968115
240	0xbcaa876f	-0.020816533
241	0xba06ee77	-0.00051472284
242	0x3d524627	0.051336434
243	0x3d8f2bec	0.06990799
244	0x3d7f9c69	0.062405024
245	0x3d035f5c	0.032073364
246	0x3d2dc8dc	0.042427883
247	0xbcfc840c	-0.030824684
248	0x3dc44951	0.095842965
249	0x3db68fbe	0.089141354
250	0x3d9fa3f3	0.07794943
251	0x3d348872	0.044075437
252	0xbd8a9103	-0.0676594
253	0xbda7a341	-0.08185435
254	0xbb80dcf9	-0.003932592
255	0x3cefbb3c	0.029264085

conv2.bias f4 [32]
0	0xb79a65f0	-1.8405699e-05
1	0xb81b8249	-3.7076217e-05
2	0x38f60ae5	0.00011732223
3	0x3898355b	7.257863e-05
4	0x385c8143	5.257247e-05
5	0x3898c6a0	7.2849216e-05
6	0x37001430	7.634095e-06
7	0x38921c66	6.967112e-05
8	0x38362e3d	4.3435244e-05
9	0xb8bf2f21	-9.116368e-05
10	0x38d51911	0.000101613005
11	0x39a12867	0.00030738415
12	0x37555a4b	1.2716812e-05
13	0xb89ece55	-7.5724594e-05
14	0xb809fd38	-3.2899174e-05
15	0xb813948a	-3.518587e-05
16	0x37d370ab	2.5205625e-05
17	0x37f6d86f	2.942627e-05
18	0x36fbdb93	7.5059447e-06
19	0x38b95205	8.836765e-05
20	0xb80bbb23	-3.3314467e-05
21	0x38d6d446	0.00010243854
22	0xb6a77778	-4.990896e-06
23	0x37156726	8.905108e-06
24	0x380745e1	3.2251588e-05
25	0x39783fbb	0.00023674864
26	0xb692f6d5	-4.379874e-06
27	0x38be4962	9.0735746e-05
28	0x37209a0d	9.572611e-06
29	0xb81dbe1e	-3.7608777e-05
30	0x38173322	3.6048827e-05
31	0x3867bd81	5.525118e-05

bn2.weight f4 [32]
0	0x3f8453cb	1.0338072
1	0x3f840f78	1.0317221
2	0x3f80f661	1.0075189
3	0x3f8234f8	1.0172415
4	0x3f87d755	1.0612589
5	0x3f854ee6	1.0414703
6	0x3f7cf789	0.9881521
7	0x3f82cbe6	1.0218475
8	0x3f866405	1.0499274
9	0x3f848016	1.0351589
10	0x3f85e02f	1.045904
11	0x3f8349a6	1.0256851
12	0x3f865778	1.0495443
13	0x3f85368b	1.040727
14	0x3f81eb69	1.0149966
15	0x3f830ee3	1.0238918
16	0x3f84757b	1.0348352
17	0x3f8a2944	1.0793843
18	0x3f84f19a	1.0386231
19	0x3f894813	1.072512
20	0x3f84c2f0	1.037199
21	0x3f8b2a95	1.087237
22	0x3f8201d1	1.0156804
23	0x3f80babf	1.005699
24	0x3f81c852	1.0139258
25	0x3f85c3c7	1.0450372
26	0x3f829f52	1.0204871
27	0x3f806355	1.0030314
28	0x3f844c97	1.0335873
29	0x3f80dd3d	1.0067517
30	0x3f84ef38	1.0385504
31	0x3f8185d9	1.0118972

bn2.bias f4 [32]
0	0xbd5c3650	-0.053762734
1	0xbd8775e1	-0.066142805
2	0xbd935730	-0.07194364
3	0xbddc4623	-0.10755565
4	0xbdedce80	-0.116116524
5	0xbddae78d	-0.10688696
6	0xbd931c33	-0.07183113
7	0xbdfad7e8	-0.12248212
8	0xbd38ba94	-0.04509981
9	0xbd5f51ca	-0.05452136
10	0xbd1bf410	-0.038074553
11	0xbd83a673	-0.06428232
12	0xbd9795c8	-0.074016154
13	0xbd58df42	-0.05294729
14	0xbd94c9ec	-0.07265076
15	0xbd6ff726	-0.05858531
16	0xbd8b013a	-0.06787343
17	0xbdde27b4	-0.108474165
18	0xbdd0e2fd	-0.101995446
19	0xbd67fcf8	-0.056637734
20	0xbdc33cd9	-0.0953309
21	0xbd7f5dfa	-0.062345482
22	0xbdd87d64	-0.10570791
23	0xbe1ed871	-0.15512253
24	0xbdd74888	-0.10511881
25	0xbdcdf5db	-0.10056659
26	0xbd93065d	-0.07178948
27	0xbdf2cb18	-0.11855143
28	0xbe21cb48	-0.15800202
29	0xbdb4f8d1	-0.088365205
30	0xbdb7b5b3	-0.08970203
31	0xbdfa7ac1	-0.12230445

bn2.running_mean f4 [32]
0	0xbf831db2	-1.0243437
1	0x3ec7546a	0.3893159
2	0xbe161cef	-0.14659475
3	0xbebe5e2a	-0.37181216
4	0xbedaae57	-0.42711136
5	0x3c8819f6	0.016613942
6	0x3f09a594	0.5376828
7	0xbe3328ab	-0.17495982
8	0xbfb2dc7d	-1.3973538
9	0x3e17a618	0.14809453
10	0x3d1db01d	0.038498033
11	0xbe26383a	-0.16232386
12	0x3f151410	0.5823374
13	0x3f2adb0d	0.66740495
14	0x3d9d9710	0.076948285
15	0xbeb1e57a	-0.3474539
16	0xbdb344bc	-0.087533444
17	0x3daade76	0.08343212
18	0xbd39f6c4	-0.04540135
19	0xbf0387e7	-0.51379246
20	0xbf9226f8	-1.1418142
21	0xbe0c6bc7	-0.13712989
22	0x3e9401c0	0.28907585
23	0xbeb6c254	-0.35695136
24	0x3e9e8a58	0.30964923
25	0xbcb97016	-0.022636455
26	0xbc9aaa70	-0.018880099
27	0xbc1c880a	-0.009553919
28	0x3f074ab2	0.5284835
29	0xbf6396e7	-0.88902134
30	0xb98f67d0	-0.00027352432
31	0x3db6accb	0.089196764

bn2.running_var f4 [32]
0	0x3e86ac23	0.26303205
1	0x3e85e11c	0.26148307
2	0x3e22bd96	0.15892634
3	0x3e4bcb46	0.19901761
4	0x3e7d4ff6	0.24737534
5	0x3e40c33c	0.18824476
6	0x3e4724c4	0.19447619
7	0x3e9c8480	0.3056984
8	0x3e9ddbd2	0.30831772
9	0x3e831ec3	0.25609407
10	0x3e9ef8e8	0.31049275
11	0x3e99531c	0.2994622
12	0x3ea07735	0.31340948
13	0x3ead401e	0.3383798
14	0x3e504a6d	0.20340891
15	0x3e920220	0.28517246
16	0x3ebdae8d	0.37047234
17	0x3e2d9ac8	0.16953576
18	0x3e5aeb1e	0.21378753
19	0x3e2e8388	0.17042363
20	0x3e97e8d6	0.29669827
21	0x3e34e79f	0.17666481
22	0x3e91c9fb	0.2847441
23	0x3e5ca679	0.2154788
24	0x3e8d501e	0.27600187
25	0x3e9935c4	0.29923832
26	0x3ea3fa25	0.32026783
27	0x3ea29355	0.3175303
28	0x3e6b7dba	0.2299718
29	0x3e939dcb	0.28831324
30	0x3e621267	0.22077332
31	0x3e45f1ea	0.19330564

fc1.weight f4 [64, 512]
0	0x3d10c594	0.035344675
1	0x3d07c028	0.03314224
2	0xb9ec10e4	-0.00045026012
3	0x3d679091	0.056534354
4	0x3c97c157	0.018524809
5	0x3a2404e9	0.0006256835
6	0xbd6423cf	-0.055698212
7	0xbc9a03af	-0.018800585
8	0x3d06166f	0.032736238
9	0x3c30e56b	0.010796885
10	0xbd16652d	-0.036717582
11	0x3d8b3f19	0.06799144
12	0xbd96b4a1	-0.07358671
13	0xbc4154cf	-0.011800005
14	0xbd88249d	-0.066476084
15	0xbd4681ca	-0.04846362
16	0x3c39d67e	0.011342643
17	0xbbcf1bb4	-0.006320441
18	0xbb1e7ae1	-0.0024182128
19	0x3c10975b	0.008825148
20	0x3d977575	0.0739545
21	0xbd05663a	-0.032568194
22	0x3d30c53e	0.043156855
23	0x3c84342e	0.016138162
24	0x3d278ea7	0.04090753
25	0xbc7f37f2	-0.015577303
26	0x3cf13ef3	0.029448962
27	0xbd07ab13	-0.033122133
28	0xbc6591e8	-0.014011838
29	0x3c07c0eb	0.008285741
30	0x3b971f55	0.0046118894
31	0xbd9d86f2	-0.076917544
32	0x3bc0aee6	0.0058802245
33	0x3c34a159	0.011024796
34	0xbd61fe4e	-0.055174164
35	0xbad94b26	-0.0016578182
36	0x3d0e4bab	0.03474013
37	0xbcfa4f90	-0.030555516
38	0x3ce820f4	0.028336026
39	0xbc5e639a	-0.013573552
40	0xbd410608	-0.047124892
41	0xbd3a44b0	-0.04547566
42	0xbd1abc80	-0.037777424
43	0xbc89ddd5	-0.01682941
44	0x3c79133f	0.0152023425
45	0xbcac9b60	-0.021070182
46	0xbcc01f2e	-0.023452368
47	0xbd89005a	-0.0668952
48	0xbd9c1ca7	-0.076226525
49	0xbceb2800	-0.028705597
50	0xbcb49bdc	-0.022046976
51	0x3d0431d0	0.032274067
52	0xbcc25907	-0.023724092
53	0xbc411b93	-0.011786359
54	0x3a2cdad5	0.0006593888
55	0xbbd29667	-0.0064266208
56	0x3cb28d43	0.021795874
57	0x3cf227e5	0.029560039
58	0x3d1ecd49	0.038769994
59	0x3c3a0839	0.0113544995
60	0x3d9593c3	0.07303574
61	0xbc7fbba1	-0.015608699
62	0x3d01fb26	0.031733654
63	0x3bba44c9	0.0056844694
64	0xbddf05b3	-0.10889759
65	0xbd051375	-0.03248926
66	0xbbd73f40	-0.0065688193
67	0x3d15ac7c	0.036541447
68	0x3d1794ac	0.03700702
69	0xbcb13dfe	-0.021636005
70	0xbc805255	-0.015664259
71	0x3dc28425	0.09497861
72	0xbcf4a47d	-0.02986359
73	0x3cff8fd7	0.031196518
74	0xbcca9abf	-0.024731992
75	0x3cb6a4ef	0.022295443
76	0xbb4f0a47	-0.003159182
77	0x3d0679ef	0.03283113
78	0x3bf83b83	0.0075754537
79	0x3da90c00	0.08254242
80	0x3c81259e	0.015765008
81	0xbbfb010c	-0.007660037
82	0x3bec4065	0.007209825
83	0xbcab66fd	-0.020923132
84	0xbce2ef53	-0.02770201
85	0x3d49a9f6	0.049234353
86	0x3cd8dedb	0.026473453
87	0xbcfb15e3	-0.030650085
88	0xbcae3d6e	-0.021269526
89	0xbcb6bfee	-0.022308316
90	0x3d2891a9	0.041154537
91	0xbc0f4440	-0.008744299
92	0xbcd7359c	-0.02627068
93	0x3d7205f1	0.059087697
94	0x3c8bacb3	0.017050123
95	0xbcd114a5	-0.02552254
96	0xbd05adc6	-0.032636426
97	0x3d90794c	0.070543855
98	0x3c8a3dde	0.016875204
99	0xbd092fb3	-0.033492755
100	0x3a76da7e	0.0009416713
101	0x3c43c254	0.011948187
102	0xbd98c4d1	-0.07459415
103	0xbc0ddb48	-0.008658238
104	0x3aa202e5	0.0012360482
105	0xbb13e901	-0.00225693
106	0x3bb1d530	0.0054270253
107	0xbcdf8beb	-0.027288398
108	0x3c1c68b4	0.009546448
109	0xbc97c06a	-0.018524367
110	0xbbd174e7	-0.0063921097
111	0xbd70ef44	-0.05882193
112	0x3d2f203b	0.042755347
113	0xbda1bc90	-0.078972936
114	0xbd5609a7	-0.0522553
115	0x3d277e3b	0.040891867
116	0x3bbf53b7	0.005838837
117	0x3d0f6ff7	0.035018887
118	0x3d26bfda	0.040710308
119	0xbc03a1d3	-0.008034187
120	0x3d353389	0.0442386
121	0xbb2a6867	-0.002600217
122	0xbc85e440	-0.01634419
123	0xbd06901d	-0.03285228
124	0x3d58c3a3	0.05292095
125	0xbc034189	-0.00801123
126	0x3c1a670a	0.0094239805
127	0xbceb2bf6	-0.028707486
128	0x3d2e8650	0.04260856
129	0xbd443653	-0.04790337
130	0x3ba7f86c	0.0051260497
131	0x3d0752ab	0.033037823
132	0xbd20d625	-0.039266724
133	0xbc178ea0	-0.009250313
134	0xbc5ccf44	-0.01347715
135	0xba04b86d	-0.0005062882
136	0xbca53ee5	-0.020171592
137	0xbc4bc2aa	-0.012436548
138	0xbd078191	-0.03308255
139	0xbce875a2	-0.028376404
140	0x3d8de1d5	0.0692784
141	0x3d3fd1a5	0.046830792
142	0x3d3a4966	0.045480154
143	0x3d828ebe	0.06374882
144	0x3d77037b	0.060306054
145	0x3baba63f	0.005238324
146	0xbd058ae1	-0.03260315
147	0x3cb97efc	0.022643559
148	0xba96933a	-0.0011487969
149	0xbcbfab84	-0.023397215
150	0x3c859b93	0.016309535
151	0x3cffaa3b	0.031209102
152	0x3d487aa3	0.04894508
153	0x3b727723	0.003699728
154	0x3bfabba5	0.0076517635
155	0xbcc20874	-0.023685671
156	0x3d569383	0.052386772
157	0xbc08df3f	-0.008354007
158	0xbc460548	-0.01208622
159	0xbd01a2fd	-0.03164958
160	0x3d0ac27f	0.033876892
161	0x3c27915f	0.01022753
162	0x3bfb0050	0.0076599494
163	0xbcd3b78a	-0.025844354
164	0xbc37cdf0	-0.011218533
165	0x3d0b33f6	0.0339851
166	0xbd4364c2	-0.047703512
167	0x3d3326fd	0.043738354
168	0xbd71e0d3	-0.0590523
169	0xbd27d1ae	-0.04097145
170	0x3d1381d4	0.036012486
171	0xba9f8618	-0.00121707
172	0x3d231feb	0.03982536
173	0xbcaca7fa	-0.021076191
174	0xbc731146	-0.014835661
175	0x3c23e775	0.010003914
176	0x3d2704b4	0.04077597
177	0x3d7dfbf7	0.06200787
178	0xbc985ef6	-0.018599968
179	0x3cae6125	0.021286556
180	0x3ccb54d8	0.02482073
181	0x3d03cb01	0.03217602
182	0x3bd6edbf	0.0065591033
183	0x3c7614e0	0.015019625
184	0xbbd8748d	-0.006605691
185	0x3d283f9a	0.04107628
186	0x3d39299e	0.045205705
187	0x3d25944d	0.040424634
188	0x3cda0d3d	0.02661764
189	0x3a35529a	0.00069169106
190	0x3ce1b212	0.02755073
191	0xbc4837f6	-0.012220373
192	0xbdaaf8fc	-0.08348271
193	0x3d87d76e	0.06632887
194	0xbbc8938e	-0.0061211055
195	0xbcac69ad	-0.021046484
196	0xbccd12cf	-0.025033383
197	0xbd28ae32	-0.04118175
198	0x3c905734	0.017619707
199	0x3c19762f	0.009366556
200	0xbc2a76fb	-0.010404344
201	0x3d447db5	0.047971446
202	0x3c80f902	0.015743736
203	0xbce1a6ed	-0.027545417
204	0x3d45f371	0.048327867
205	0xbbdb7632	-0.0066974396
206	0xbc55bd52	-0.013045626
207	0xbb27b2f5	-0.0025588844
208	0xbd261f3e	-0.04055714
209	0xbd04f68a	-0.03246168
210	0x3c9cabed	0.01912495
211	0x3d5405af	0.051763233
212	0xbd65da85	-0.0561166
213	0x3d36d216	0.044633947
214	0x3bfec3ba	0.0077747973
215	0xbcebf785	-0.02880455
216	0xbd4562be	-0.04818987
217	0x3cc20a10	0.023686439
218	0xbc3644f4	-0.011124838
219	0xbd7cecdf	-0.061749335
220	0xbd81e14e	-0.063418016
221	0xbbd46404	-0.0064816494
222	0xbd191990	-0.037377894
223	0xbd9ebd21	-0.07750917
224	0x3c8ad643	0.016947871
225	0x3c891fbd	0.016738767
226	0x3c8e9e5f	0.017409502
227	0xbce1449d	-0.027498538
228	0xbbde8508	-0.006790761
229	0xbceff384	-0.029290922
230	0xbd57dccc	-0.052700803
231	0x3c21857e	0.009858487
232	0xbd51aaf5	-0.051188428
233	0x38f1f92b	0.00011538187
234	0xbd02b520	-0.031911016
235	0x3d1f918f	0.038957175
236	0x3d493481	0.049122337
237	0xbca28f47	-0.01984371
238	0x3cf58cac	0.029974304
239	0x3d28d93b	0.041222792
240	0x3c3ef19f	0.011654287
241	0x3bdf3c8d	0.006812638
242	0x3d11b2a7	0.035570767
243	0xbcc5bfb3	-0.02413926
244	0x3d6f409c	0.058411226
245	0xbd3a4ce2	-0.045483477
246	0xbcd3bcfb	-0.025846949
247	0x3d272d20	0.04081452
248	0x3bd3d171	0.0064641763
249	0xbd029d07	-0.031888034
250	0xbb8de869	-0.004330684
251	0x3d194c67	0.03742638
252	0xbd1430d4	-0.03617938
253	0x3d0a3b9a	0.033748247
254	0x3c0057af	0.007833405
255	0x3c66f959	0.014097535

fc1.bias f4 [64]
0	0x3c833f21	0.016021313
1	0xbd0bb360	-0.034106612
2	0x3cb37e6b	0.021910867
3	0x3d4b9342	0.049700983
4	0x3b762e48	0.0037564207
5	0x3d14f7b5	0.036369044
6	0x3c65f118	0.014034532
7	0x3ce69889	0.028148906
8	0xbd1cc2ce	-0.038271718
9	0x3ceea499	0.02913122
10	0xbcc03f10	-0.02346757
11	0x3b920e8f	0.004457302
12	0x3c9c7860	0.019100368
13	0x3cc58700	0.024112225
14	0x3c8de360	0.017320335
15	0x3d2f3f86	0.04278519
16	0xbc81e8e4	-0.015858121
17	0x3d3bcad3	0.045847725
18	0xbc4a2235	-0.012337257
19	0xbc93c30f	-0.018037347
20	0xbccdda5f	-0.025128542
21	0x3cc06544	0.023485787
22	0xbacac171	-0.0015469027
23	0x3d07bc62	0.03313864
24	0xbbabc832	-0.005242371
25	0xbd060f4d	-0.032729436
26	0xbb335510	-0.0027363934
27	0x3c8d6c86	0.017263662
28	0x3bd8771a	0.006605995
29	0xbb71f5ff	-0.0036920307
30	0x3a427b4e	0.00074188865
31	0x3b905756	0.0044049425
32	0x3c28b72b	0.010297577
33	0xbcec26ed	-0.028827155
34	0x3c85ee99	0.016349124
35	0x3c68e4ce	0.014214708
36	0xbd2ab6ea	-0.041678347
37	0x3c76b6e7	0.015058256
38	0x3c5bc756	0.013414225
39	0xbd47ebf9	-0.048809025
40	0x3ceed11e	0.02915245
41	0x3cb111dd	0.021614963
42	0xbcbe972c	-0.023265444
43	0x3ae66820	0.0017578639
44	0x3d34ff97	0.044189062
45	0x3ba1383a	0.004920033
46	0x3cea8f7f	0.028632877
47	0xbc813949	-0.015774386
48	0x3d469bf7	0.048488583
49	0x3cd60a9c	0.026128106
50	0x3d4c7571	0.04991669
51	0x3af2f5fe	0.0018536446
52	0xbc9304e6	-0.017946672
53	0xbd01a339	-0.031649802
54	0x3d300b82	0.042979725
55	0xbb847a47	-0.004042897
56	0xb9ec583e	-0.00045079173
57	0x3c95b97a	0.018276919
58	0x3ceb9878	0.028759226
59	0x3ca6cb38	0.020360574
60	0xbc3a9cc7	-0.011389918
61	0x3d3791c9	0.044816766
62	0xbd07c4f1	-0.033146802
63	0x3d519768	0.051169783

fc2.weight f4 [4, 64]
0	0x3e0cd17e	0.1375179
1	0xbc12ae1d	-0.008952645
2	0x3e0a9ba2	0.13535932
3	0xbdae836b	-0.0852116
4	0x3c6ae5b6	0.014336994
5	0xbdd94ffd	-0.1061096
6	0xbdb8c3cc	-0.0902172
7	0x3d948fcd	0.0725399
8	0xbdda4712	-0.10658087
9	0x3ce1f461	0.02758235
10	0x3d4bc055	0.04974397
11	0xbd6d21ba	-0.057893492
12	0x3dce13b8	0.10062355
13	0x3c2487c5	0.010042136
14	0xbe03378d	-0.1281416
15	0x3dea0778	0.11427206
16	0xbd907dc1	-0.07055236
17	0xbd50fe0b	-0.051023524
18	0xbd7c63ee	-0.061618738
19	0x3d6abf30	0.057311237
20	0x3dbd6490	0.092476964
21	0x3d44c36f	0.048037942
22	0x3d2348f7	0.039864507
23	0x3d8065e1	0.06269432
24	0xbdbad5ff	-0.09122848
25	0xbda7073b	-0.08155676
26	0x3d4bceb1	0.049757663
27	0xbd22372f	-0.03960341
28	0x3e0f18e6	0.13974342
29	0x3dbde71e	0.09272598
30	0xbd6bd9d5	-0.057580788
31	0xbdd14e7d	-0.102200486
32	0xbb9e51c9	-0.004831527
33	0xbe23e313	-0.1600459
34	0xbd321088	-0.043472797
35	0x3e091e1a	0.13390389
36	0x3deceb29	0.11568291
37	0xbb34a52d	-0.0027564273
38	0xbd334915	-0.04377087
39	0x3d678c0d	0.056530047
40	0x3dc6c727	0.09705954
41	0xbd8fd577	-0.07023137
42	0xbdfeb97c	-0.12437722
43	0xbdb8aac0	-0.09016943
44	0xbd1d9e4d	-0.038481046
45	0x3dd77b7b	0.10521599
46	0xbe160fda	-0.14654484
47	0x3d867ca1	0.0656674
48	0x3df83d3d	0.12121055
49	0xbe11d05c	-0.14239639
50	0xbc0f443d	-0.008744297
51	0xbc75d39a	-0.015004063
52	0xbe29e2dd	-0.16590448
53	0xbdf5776b	-0.11985668
54	0xbcd94d0b	-0.026525995
55	0x3ddb6e35	0.1071438
56	0xbd24f20c	-0.040269896
57	0x3de10403	0.10987093
58	0xbe24437d	-0.1604137
59	0xbd865e0b	-0.06560906
60	0xbc8096fb	-0.015696993
61	0xbe27e005	-0.1639405
62	0x3d22dfac	0.03976409
63	0x3c233cb7	0.009963206
64	0xbcf951b1	-0.030434461
65	0xbd06c69d	-0.032904256
66	0xbded0b97	-0.11574476
67	0xbddce672	-0.107861415
68	0xbdad198e	-0.0845214
69	0x3da93001	0.08261109
70	0xbcf8bdfa	-0.030364025
71	0x3d750479	0.05981872
72	0x3cfdc65a	0.03097837
73	0x3e08ae74	0.13347799
74	0xbddf3dab	-0.10900434
75	0x3d607bfc	0.05480574
76	0x3bd6b3d4	0.006552199
77	0x3d37a4b5	0.04483481
78	0xbcc0aa32	-0.023518655
79	0xbd7ac4a0	-0.061222672
80	0x3d411c89	0.047146354
81	0x3e088cd3	0.1333497
82	0x3d693b40	0.05694127
83	0x3d1e6d21	0.038678292
84	0x3e04f1e9	0.12982906
85	0xbd0755d2	-0.03304083
86	0xbdca6f81	-0.09884549
87	0xbe24301d	-0.16033979
88	0xbe128201	-0.14307405
89	0x3cbdf307	0.023187174
90	0xbc27aa81	-0.010233522
91	0xbde687ae	-0.112563476
92	0xbd8757db	-0.06608554
93	0x3d068a38	0.03284666
94	0xbd46526d	-0.04841845
95	0xbdca1d12	-0.09868826
96	0xbdab65f8	-0.08369058
97	0xbd97fe73	-0.07421579
98	0x3c4f794a	0.012663195
99	0xbd10a488	-0.03531316
100	0xbde7dd3a	-0.113214925
101	0x3d1cad69	0.038251314
102	0x3dce2d89	0.10067279
103	0xbd0c926d	-0.03431933
104	0xbd42cd3f	-0.04755902
105	0x3ce11526	0.027475905
106	0x3d5bf96a	0.053704657
107	0x3dbec7d3	0.09315457
108	0xbe0a21a3	-0.13489394
109	0xbd1b7a04	-0.03795816
110	0x3c71397c	0.014723178
111	0x3da23bff	0.079215996
112	0x3c802628	0.015643194
113	0x3db2e9a9	0.087359734
114	0xbce72286	-0.028214704
115	0x3ddbcafb	0.10732075
116	0xbd402b9f	-0.0469166
117	0xbd123930	-0.03569907
118	0x3ce429fc	0.027852051
119	0xbd2a88ae	-0.041634254
120	0xbda7f429	-0.08200867
121	0x3d54dbee	0.051967554
122	0x3dbeff24	0.09326008
123	0x3d12aab4	0.035807326
124	0x3dbe8d95	0.093043484
125	0xbc601f67	-0.013679362
126	0x3d6d3c9c	0.05791913
127	0xbddcac58	-0.107750595
128	0xbd92e07d	-0.07171724
129	0x3d40bad1	0.047053162
130	0xbe3237e9	-0.1740414
131	0xbe036ca7	-0.12834416
132	0xbd4bbbde	-0.04973971
133	0x3df23e38	0.118282735
134	0xbc82233e	-0.015885945
135	0x3d92ea15	0.07173554
136	0xbdea8f1c	-0.11453077
137	0xbe2894bc	-0.16462988
138	0xbd18980e	-0.037254386
139	0x3bf2d2af	0.0074103693
140	0xbdb85fc1	-0.090026386
141	0x3c491c86	0.012274867
142	0x3d0f8911	0.035042826
143	0xbda21c90	-0.07915604
144	0x3c3c4206	0.011490351
145	0xbc987dd3	-0.018614685
146	0x3d69b2a4	0.05705513
147	0xbddd3f67	-0.10803109
148	0xbd9be06a	-0.07611163
149	0x3e178563	0.14796977
150	0xbd381201	-0.044939045
151	0xbdc64923	-0.096819185
152	0xbdc9190f	-0.09819233
153	0x3d84e2c1	0.064885624
154	0xbc25a074	-0.010109056
155	0x3dcd28f5	0.100175776
156	0xbe14e236	-0.14539418
157	0x3e050725	0.12991007
158	0x3d5dfdc1	0.054197077
159	0xbda879da	-0.08226366
160	0xbdbbbfb6	-0.09167425
161	0x3cbdb9d9	0.023159908
162	0x3da9b967	0.08287316
163	0x3dff345d	0.124611594
164	0xbdbe5caa	-0.09295018
165	0xbd05d67c	-0.03267525
166	0xbd02794b	-0.031853955
167	0xbdb5e625	-0.08881787
168	0xbd111fff	-0.035430904
169	0x3d831368	0.06400186
170	0xbd9257b0	-0.07145631
171	0x3d2814c6	0.041035436
172	0xbdab3fc7	-0.08361774
173	0xbe011372	-0.12605074
174	0x3d3c1cab	0.045925777
175	0xbe087452	-0.13325623
176	0xbe0a0de0	-0.13481855
177	0xbc973f3c	-0.01846277
178	0x3c6cd1e4	0.014454339
179	0xbda636f7	-0.081159525
180	0x3c8f4c34	0.017492391
181	0x3d8e53ed	0.06949601
182	0xbdab1928	-0.083544075
183	0x3d9762f0	0.07391918
184	0x3d863c68	0.0655449
185	0xbdc52f0d	-0.09628115
186	0x3d9b571a	0.07584973
187	0xbdc40f68	-0.09573251
188	0xbe23f98a	-0.1601316
189	0xbd6b3f50	-0.057433426
190	0xbca36f8c	-0.01995065
191	0xbe3c7656	-0.18404517
192	0x3d9eecc4	0.07760003
193	0x3ce299b9	0.027661191
194	0xbdc56228	-0.096378624
195	0x3d7cbace	0.06170159
196	0xbd0c0371	-0.03418297
197	0xbdd77217	-0.10519808
198	0xbd8c6524	-0.068552285
199	0xbdb7db3b	-0.08977362
200	0xbd12f3ac	-0.035876915
201	0xbd9f146c	-0.07767567
202	0xbd9cfec3	-0.076657794
203	0xbe148429	-0.1450354
204	0x3df30ea5	0.118680276
205	0x3d8efabd	0.06981418
206	0x3dda0f1c	0.10647413
207	0xbd5ae239	-0.0534384
208	0x3d09bbb2	0.033626266
209	0xbdf8eae7	-0.12154179
210	0x3dacfb0e	0.084463224
211	0x3d90df41	0.07073832
212	0xbcf04738	-0.029330835
213	0xbdc26380	-0.09491634
214	0x3d981d6c	0.07427487
215	0x3d1aa9c0	0.037759542
216	0x3e4073e3	0.18794207
217	0xbdfb1861	-0.12260509
218	0x3d6102df	0.05493438
219	0x3c94be0c	0.018157028
220	0x3d36f8ba	0.044670798
221	0xbd8b0c9f	-0.06789517
222	0x3d7d67a0	0.061866403
223	0xbdc14197	-0.094363384
224	0xbdc62e18	-0.096767604
225	0xbd9a7639	-0.075420804
226	0xbe22056d	-0.15822382
227	0x3cee25d9	0.029070782
228	0xbd32da33	-0.043665122
229	0x3dd43d1d	0.10363219
230	0xbdc3466f	-0.095349185
231	0x3b215a47	0.002462046
232	0x3cc6cb83	0.024266964
233	0xbdd6e607	-0.10493093
234	0x3c4300c3	0.011902037
235	0x3d9e71a3	0.07736518
236	0x3dd79f58	0.10528439
237	0x3ddf6fc9	0.10909993
238	0x3c93e6e9	0.018054442
239	0xbdb2b979	-0.08726782
240	0x3d8779bc	0.06615016
241	0x3deb094b	0.11476382
242	0xbde6f8b3	-0.11277904
243	0x3df70399	0.12061233
244	0xbda96f2d	-0.08273158
245	0xbdb5d5c3	-0.088786624
246	0xbdde2d1e	-0.10848449
247	0xbb64bd58	-0.0034902897
248	0x3da7f93c	0.082018346
249	0xbdc29999	-0.09501953
250	0x3d454844	0.04816462
251	0xbdf38a82	-0.11891653
252	0xbab28103	-0.0013618771
253	0xbe126a40	-0.14298344
254	0x3e0fcb7b	0.14042465
255	0x3e263eef	0.16234945

fc2.bias f4 [4]
0	0x3da49c09	0.08037574
1	0xbdc5c4dc	-0.096566886
2	0x3d9dd42d	0.07706485
3	0x3dc1754f	0.09446203
