best_model.pth (torch, 319908 bytes, 8 tensors)

conv1.weight f4 [16, 3, 3, 3]
0	0x3d9bc690	0.07606232
1	0x3df0966a	0.11747439
2	0x3e4218bc	0.18954748
3	0x3e8d53d8	0.2760303
4	0x3e88fea3	0.26756772
5	0x3e881b20	0.26583195
6	0x3dfa28c4	0.12214807
7	0x3e018137	0.12646948
8	0x3e96c8ab	0.29449973
9	0xbe545db0	-0.20738864
10	0x3c8645e9	0.016390758
11	0x3996fe02	0.0002879948
12	0x3dccf8ef	0.10008418
13	0xbe335705	-0.17513664
14	0xbe1e2178	-0.15442455
15	0x3df770aa	0.12082036
16	0xbd9fec30	-0.07808721
17	0xbc67af8b	-0.014140974
18	0xbe322f94	-0.17400962
19	0x3cbda3ff	0.023149488
20	0x3d3d19ea	0.04616729
21	0x3e30324c	0.17206687
22	0x3c1c87fe	0.009553907
23	0x3d9f0db7	0.07766288
24	0x3dfc5d29	0.123224564
25	0xbc3a97c5	-0.011388724
26	0x3db8ac87	0.09017282
27	0xbd6fd620	-0.058553815
28	0xbde8c152	-0.11364998
29	0x3d5c9330	0.053851306
30	0x3e7d3944	0.24728876
31	0xbdcaae45	-0.098965205
32	0xbce17be3	-0.027524894
33	0x3e8e4618	0.27787852
34	0x3e2ded1e	0.16984984
35	0x3daacbb7	0.08339637
36	0xbdb56f83	-0.0885916
37	0xbcf16d23	-0.029470986
38	0xbd59f54a	-0.05321244
39	0xbd9841a3	-0.07434394
40	0xbda5dc07	-0.080986075
41	0x3cdd2b85	0.02699829
42	0xbd8a0ff1	-0.06741322
43	0xbe06b876	-0.13156304
44	0xbe11859e	-0.14211127
45	0x3d82deee	0.06390177
46	0xbd3b5fe2	-0.045745738
47	0xbbda3bcc	-0.0066599604
48	0x3d3cb6ef	0.046072897
49	0xbe4fb0f6	-0.20282349
50	0xbdca0a0c	-0.098651975
51	0x3d184de2	0.03718365
52	0xbe408be5	-0.18803366
53	0xbd5f948a	-0.054585017
54	0x3e0fee91	0.1405585
55	0xbe521fc4	-0.2051993
56	0x3dc5d3ea	0.0965956
57	0xbcb05da4	-0.021529026
58	0x3e1813cd	0.14851303
59	0xbde1b366	-0.11020546
60	0xbe24a692	-0.16079167
61	0x3d42d14b	0.04756288
62	0xbe2185a4	-0.15773636
63	0xbd6e3f5f	-0.058165904
64	0x3dded8de	0.10881208
65	0x3d0acc78	0.033886403
66	0xbe1825b2	-0.1485813
67	0x3de3dba8	0.111258805
68	0xbdd434dc	-0.103616446
69	0x3dc9d13c	0.098543614
70	0x3da35ce7	0.07976704
71	0xbdb64117	-0.08899134
72	0xbe4ca3a3	-0.19984297
73	0x3d7c5c06	0.061611198
74	0x3e5cc74d	0.21560402
75	0x3d79a3a5	0.06094708
76	0xbd11822c	-0.035524532
77	0xbc8760a1	-0.016525568
78	0x3daf9cff	0.085748665
79	0x3da52a74	0.08064738
80	0x3ea425a0	0.32059956
81	0x3d1399e2	0.036035426
82	0x3ce85924	0.028362818
83	0xbe0ddfbf	-0.13854884
84	0xbd3b8253	-0.045778584
85	0x3de94ab8	0.113912046
86	0x3e697d3f	0.22801684
87	0xbde534ec	-0.11191735
88	0xbde5524e	-0.11197339
89	0xbce8f11b	-0.02843528
90	0x3dbe394c	0.09288272
91	0xbdc2212c	-0.09478983
92	0xbd16b279	-0.0367913
93	0xbd420fb8	-0.04737827
94	0xbd9095dc	-0.070598334
95	0x3cd8d9e6	0.02647109
96	0xbe188afd	-0.1489677
97	0x3e040791	0.12893511
98	0x3dd69fdc	0.104797095
99	0x3e008421	0.12550403
100	0x3e724a0d	0.2366106
101	0xbde7bb36	-0.113150045
102	0xbe375286	-0.17902574
103	0xbd1d4c96	-0.038403116
104	0xbe609d16	-0.21934924
105	0x3e12998d	0.14316387
106	0x3e05ec03	0.13078313
107	0xbd2d7f9b	-0.042358022
108	0x3e685495	0.22688515
109	0xbd0cb9b0	-0.034356773
110	0xbd06e0b0	-0.032929122
111	0x3d3af9f8	0.045648545
112	0x3c7d9e2c	0.015479606
113	0xbe0ea166	-0.13928756
114	0x3ba00708	0.0048836507
115	0xbe0a986d	-0.13534708
116	0xbdd932e7	-0.10605412
117	0x3e20918d	0.15680523
118	0xbd836272	-0.06415261
119	0x3d01be12	0.031675406
120	0x3e0ff06d	0.14056559
121	0x3d2be9b4	0.041970924
122	0xbe2d40e9	-0.16919293
123	0xbd7b8e96	-0.061415277
124	0xbd875560	-0.06608081
125	0x3dc0298e	0.09382926
126	0xbe00bcb0	-0.12571979
127	0xbd3eb1db	-0.046556335
128	0x3d838ae8	0.06422979
129	0x3bd984b2	0.006638133
130	0xbe2e5d58	-0.17027795
131	0xbe3db20b	-0.18524949
132	0xbe1ca036	-0.1529549
133	0xbe64d5e7	-0.22347222
134	0xbe43fef4	-0.19140226
135	0xbe0892a5	-0.1333719
136	0xbe1c523c	-0.15265745
137	0xbe44d233	-0.1922081
138	0x3dacd02a	0.08438142
139	0xbe102770	-0.14077544
140	0x3dc1b072	0.094574824
141	0x3e0cc516	0.13747057
142	0x3dbb700c	0.091522306
143	0xbc568ed0	-0.013095573
144	0xbdf8ba86	-0.121449515
145	0xbd1dfc4e	-0.038570695
146	0xbda08a0c	-0.0783883
147	0x3baa61bf	0.0051996405
148	0x3dfc9793	0.12333598
149	0x3e3015b4	0.17195779
150	0x3e000459	0.12501658
151	0x3d135120	0.03596604
152	0xbde25134	-0.110506445
153	0x3daf5e3a	0.08562894
154	0x3da74ab1	0.08168543
155	0x3e169f71	0.1470926
156	0x3da00c73	0.078148745
157	0xbe32d37b	-0.17463486
158	0xbe4b1d08	-0.19835293
159	0xbdb45f25	-0.0880721
160	0xbc9f03a4	-0.019410916
161	0xbdff9307	-0.12479215
162	0x3cd4f277	0.025994522
163	0x3def423c	0.11682555
164	0x3e28022f	0.16407083
165	0xbda480e8	-0.080323994
166	0x3dd121a8	0.102114975
167	0xbe2c0eb6	-0.16802487
168	0x3d691ab8	0.056910247
169	0xbe272b1d	-0.1632504
170	0xbe2c1c9d	-0.1680779
171	0xbe1f4dba	-0.15556994
172	0x3e14e05e	0.14538714
173	0x3e057942	0.13034537
174	0xbd37bf16	-0.044859968
175	0x3e2561f9	0.16150655
176	0xbe04d4ae	-0.12971756
177	0x3e0a5b87	0.13511477
178	0xbd69725d	-0.05699383
179	0xbd7efc5d	-0.06225239
180	0xbd8b2b23	-0.06795337
181	0xbcfb902e	-0.030708399
182	0x3e30156b	0.1719567
183	0x3e9ce512	0.30643517
184	0x3e0a764a	0.13521686
185	0xbddc3e99	-0.10754127
186	0xbb841434	-0.0040307287
187	0x3e7a73e1	0.24458267
188	0xbe72b8d6	-0.23703322
189	0x3d936418	0.07196826
190	0xbddb2fa3	-0.10702445
191	0x3dac4ec5	0.084134616
192	0x3c60b846	0.013715809
193	0x3e762e08	0.24040997
194	0xbdff9098	-0.12478751
195	0x3e3a7498	0.1820854
196	0x3cb6f4be	0.022333499
197	0x3d964ba0	0.07338643
198	0xbda43a7b	-0.08018967
199	0x3e0cf1ec	0.13764161
200	0xbdb6a79b	-0.08918687
201	0xbe1ad5ab	-0.1512057
202	0xbdff4e78	-0.124661386
203	0xbdbcfd3c	-0.09227988
204	0xbda6e37e	-0.081488594
205	0x3d68159f	0.056661244
206	0xbdfe1613	-0.12406554
207	0x3dc5707c	0.09640595
208	0x3dbf96e1	0.0935495
209	0xbe214495	-0.15748818
210	0x3e6df50c	0.23238009
211	0xbe3b93a3	-0.18318038
212	0xbc5c9e0e	-0.013465418
213	0x3e32840f	0.17433189
214	0xbd75f79f	-0.060050603
215	0xbcdddf07	-0.027083887
216	0x3db9a3e0	0.0906446
217	0x3e1de793	0.1542037
218	0x3d1eab23	0.038737427
219	0x3dc840d1	0.09777988
220	0x3d319175	0.04335161
221	0xbda7c70e	-0.081922635
222	0x3c166726	0.009179866
223	0xbe110dd3	-0.1416543
224	0x3d8b0502	0.067880645
225	0x3d3a4fb2	0.04548616
226	0xbdcae0e0	-0.09906173
227	0x3df66aec	0.120321125
228	0xbdc071ea	-0.093967274
229	0x3d998fd4	0.07498136
230	0xbe28651d	-0.16444822
231	0x3cc4540b	0.023965856
232	0xbc801d95	-0.015639106
233	0xbdc44b38	-0.09584659
234	0xbe61cce4	-0.22050816
235	0xbe200e41	-0.15630437
236	0x3e145f4d	0.1448948
237	0xbdbcd658	-0.0922057
238	0xbd890715	-0.06690804
239	0x3e897887	0.26849768
240	0x3d690c1a	0.056896307
241	0x3da72d22	0.08162905
242	0x3ec6175a	0.3868969
243	0xbdf4b319	-0.11948223
244	0xbe1f26d3	-0.15542154
245	0xbd8a51d1	-0.067538865
246	0xbd271c9a	-0.04079876
247	0x3e14a768	0.14516985
248	0xbe23fe51	-0.16014983
249	0xbe19137d	-0.1494884
250	0x3d07d4f8	0.033162087
251	0x3e24e0d4	0.1610139
252	0xbd1fe65f	-0.03903806
253	0x3e1474c6	0.1449767
254	0xbe183c0d	-0.14866658
255	0xbdadc42f	-0.08484685

conv1.bias f4 [16]
0	0xbca7bd91	-0.020476134
1	0xbe12ade2	-0.14324144
2	0x3e10df06	0.14147577
3	0xbd0b7894	-0.03405054
4	0x3d457337	0.04820558
5	0x3dddd913	0.10832419
6	0x3df776fd	0.12083242
7	0x3cce9147	0.025215758
8	0x3e0fb0c5	0.14032276
9	0xbac5d73f	-0.0015094056
10	0x3d201258	0.039079994
11	0xbdc86615	-0.097850956
12	0xbc83126a	-0.015999991
13	0xbd117511	-0.035512034
14	0x3e874245	0.26417747
15	0x3e5c05dc	0.2148661

conv2.weight f4 [32, 16, 3, 3]
0	0xbcd62b80	-0.02614379
1	0xbc953195	-0.01821212
2	0x3d2bd265	0.041948695
3	0xbda988ec	-0.08278069
4	0xbcaf3ab4	-0.021390297
5	0xbd04da61	-0.032434825
6	0xbd43d0cc	-0.047806546
7	0x3c490928	0.012270249
8	0xbd09d7a2	-0.03365291
9	0xbbc6b2d9	-0.006063801
10	0xbd467746	-0.04845359
11	0x3d379f33	0.04482956
12	0xbd942677	-0.07233899
13	0x3d75fb72	0.06005425
14	0x3dbb0690	0.09132111
15	0x3d2f59cc	0.042810246
16	0xbd5037a3	-0.05083431
17	0x3bbcca80	0.0057614446
18	0x3dd16778	0.10224813
19	0x3dfa9c6e	0.12236868
20	0xbd4c1cf6	-0.049832307
21	0xbd62091c	-0.05518447
22	0x3c336299	0.0109488005
23	0xbd58fdf6	-0.05297657
24	0x3d33f364	0.043933287
25	0xbd8f86ff	-0.0700817
26	0xbda91e38	-0.08257717
27	0xbc328126	-0.010895049
28	0x3de74b28	0.11293632
29	0xbcb58e28	-0.022162512
30	0xbc3ec20d	-0.011642945
31	0x3d7f4db6	0.06232997
32	0x3d5696e8	0.05239001
33	0x3e16168b	0.14657037
34	0x3e409b95	0.1880935
35	0x3db536c7	0.088483386
36	0x3d271a66	0.04079666
37	0xbd9822bd	-0.07428501
38	0xbd43a855	-0.047767956
39	0xbd1b8399	-0.0379673
40	0xbdb2bacd	-0.08727036
41	0xbcb3cfa1	-0.021949591
42	0x3d16cfbf	0.036819216
43	0xbccbdb23	-0.024884766
44	0xbd79d9ee	-0.06099885
45	0x3d61d0d1	0.055130783
46	0x3d3afacd	0.04564934
47	0xbc19b62a	-0.00938181
48	0x3d14a68d	0.036291648
49	0xbc16caf7	-0.009203664
50	0x3da464ef	0.08027064
51	0x3d6540dc	0.055970058
52	0xbd3e8730	-0.046515644
53	0x3dc40982	0.09572126
54	0xbb37117b	-0.0027934003
55	0xbd47fa66	-0.048822783
56	0x3c0f4f89	0.00874699
57	0xbc93975d	-0.018016512
58	0xbb8a9a5f	-0.0042298282
59	0xbd66c9cd	-0.056344796
60	0xbd5b48d8	-0.053536266
61	0xbc7ebf49	-0.015548536
62	0xbdc1a90c	-0.09456071
63	0xbda1c2a7	-0.07898455
64	0xbd4017f9	-0.046897862
65	0xbca771c0	-0.020439982
66	0x3ca48a3e	0.02008545
67	0x3cb6d68a	0.022319097
68	0x3da80034	0.08203164
69	0xbc9a7559	-0.018854784
70	0xbd1a61df	-0.037690993
71	0x3c2d2524	0.010567937
72	0x3d1d8ca4	0.038464203
73	0x3dd7143f	0.105019085
74	0x3c04627f	0.008080124
75	0xbda7f040	-0.08200121
76	0x3bbdffe3	0.0057983263
77	0xbd8de4a4	-0.06928375
78	0xbd85624a	-0.06512888
79	0x3b5a1815	0.0033278514
80	0xbcfffb5a	-0.031247783
81	0x3d693eb2	0.056944557
82	0x3d2f0fc5	0.04273965
83	0x3d8b6512	0.06806387
84	0x3d66381b	0.05620585
85	0xbaced876	-0.0015781063
86	0x3d4dc604	0.05023767
87	0x3d1c24dd	0.038121093
88	0xbd1077f2	-0.03527064
89	0xbd46abd6	-0.04850372
90	0x3decbb9f	0.115592234
91	0x3db18183	0.086672805
92	0xbcf03283	-0.02932096
93	0x3df78fe1	0.120879896
94	0x3d9dd1c2	0.07706024
95	0xbcc6ca68	-0.024266437
96	0xbce242dc	-0.027619772
97	0x3d089715	0.033347208
98	0xbcf1bbba	-0.02950846
99	0xbd089056	-0.033340774
100	0xb996e07c	-0.00028777483
101	0x3dc97681	0.09837056
102	0x3c379148	0.011204071
103	0x3dba4d5a	0.09096785
104	0x3e073123	0.13202338
105	0x3e021071	0.12701584
106	0x3bd3483f	0.0064478214
107	0x3b8c85c4	0.004288407
108	0x3cdfb942	0.027310017
109	0x3d8c7d12	0.06859793
110	0x3dbf2b9b	0.09334489
111	0xbd9fd0d0	-0.078035
112	0x3d2613aa	0.040546097
113	0x3d189a9b	0.03725682
114	0xbdb0894f	-0.086199395
115	0xbd7b7550	-0.061391175
116	0x3d08f169	0.03343335
117	0x3d4a1fb3	0.049346637
118	0x3ddb527a	0.107090905
119	0xbb2c1cf9	-0.0026262386
120	0xbac49095	-0.0014996702
121	0x3d92d96b	0.071703754
122	0x3c6fe6f7	0.014642469
123	0x3b9689d1	0.0045940657
124	0x3da278a4	0.079331666
125	0xbdcffd91	-0.10155786
126	0xbd9c5f68	-0.07635385
127	0x3ca8a357	0.020585699
128	0x3cd27359	0.025689768
129	0xbd6497b1	-0.055808727
130	0x3ce164af	0.02751383
131	0x3e0b8f06	0.13628778
132	0xbdd9a69a	-0.1062748
133	0xbd0f2221	-0.034944657
134	0x3bc7005c	0.006073041
135	0xbd0c1fc9	-0.03421
136	0xbd9dc738	-0.077040136
137	0x3c622136	0.013801863
138	0x3c10998a	0.008825669
139	0xbd8dba7c	-0.06920335
140	0x3d9926ed	0.07478128
141	0xbc2a80df	-0.010406702
142	0x3d9af204	0.07565692
143	0x3dbf38fa	0.09337039
144	0xbd3a0ac7	-0.045420434
145	0xbd34b0db	-0.044113975
146	0x3d056c0c	0.032573745
147	0xbdd38f16	-0.10330026
148	0x3d23c3bc	0.03998159
149	0x3c1f1f2e	0.009712024
150	0xbd0084f8	-0.03137681
151	0x3d87a2f7	0.0662288
152	0x3c7c3d91	0.015395538
153	0x3a7a8f22	0.00095580716
154	0xbd89ac1b	-0.0672228
155	0x3c76679c	0.015039351
156	0xbdcf9229	-0.101353
157	0x3a59af09	0.00083039753
158	0xba1608d5	-0.0005723362
159	0x3d3264d3	0.043553185
160	0xbd545fd5	-0.051849205
161	0xbd3f8d3f	-0.046765562
162	0x3e023788	0.12716496
163	0xbd3b6f33	-0.045760345
164	0x3d1c5baa	0.038173355
165	0xbb2a9a4f	-0.0026031916
166	0x3bb1a030	0.005420707
167	0xbdb021ec	-0.0860022
168	0x3cf29a6e	0.029614653
169	0xba9a6c9a	-0.0011781633
170	0xbd53b74b	-0.051688474
171	0x3cbe3cf1	0.023222419
172	0x3bf49ede	0.0074652275
173	0xbdda8168	-0.106692135
174	0x3d223f6e	0.039611273
175	0x3ce650be	0.028114673
176	0xbc6ab1b2	-0.014324592
177	0x3de53d71	0.1119336
178	0xbc86d0c1	-0.016456963
179	0xbd992e58	-0.074795425
180	0xbd85434d	-0.06506977
181	0xbbd07042	-0.0063610384
182	0xbcc6b527	-0.024256302
183	0xbca0a700	-0.019610882
184	0x3ccf7b56	0.025327366
185	0xbdc86911	-0.09785665
186	0xbd92fa76	-0.07176678
187	0x3d85cb7b	0.065329514
188	0x3d281d5b	0.04104362
189	0xbd758a69	-0.05994645
190	0x3a9697a1	0.0011489281
191	0xbd98fc9f	-0.07470059
192	0x3d9f3974	0.0777463
193	0xbd1cec8e	-0.038311534
194	0x3d34d6d2	0.04415018
195	0x3c805949	0.015667574
196	0xbc802e7a	-0.015647162
197	0x3c6c9525	0.014439856
198	0x3d8c6745	0.068556346
199	0x3d339651	0.043844525
200	0x3d0eb497	0.034840193
201	0x3c9a124d	0.018807555
202	0x3d107a09	0.03527263
203	0xbda854dc	-0.08219311
204	0xbdbc7fe7	-0.09204083
205	0x3c39a730	0.0113313645
206	0xbcc3f183	-0.023918873
207	0xbc4d49f6	-0.012529841
208	0xbd3ea932	-0.046548076
209	0xbd95a7cf	-0.073073976
210	0xbbaba35b	-0.0052379793
211	0x3d0f4050	0.034973443
212	0xbd3428fa	-0.04398439
213	0xbba0fff1	-0.004913323
214	0xbd86450f	-0.06556141
215	0x3cd060ea	0.025436837
216	0xbbb25458	-0.0054421835
217	0xbdc54ee9	-0.096341915
218	0xbd3f52c6	-0.0467098
219	0xba89d137	-0.0010514621
220	0x3c8a6abc	0.016896598
221	0xbd91ada8	-0.071132004
222	0x3c2a8a3a	0.010408932
223	0xbde2f23b	-0.11081358
224	0xbc3e9e5c	-0.0116344355
225	0x3dab50b1	0.08365
226	0xbd12bbcf	-0.03582364
227	0x3d2aed1e	0.04173004
228	0x3db2d003	0.08731081
229	0x3a6b816a	0.0008983823
230	0xbc47f935	-0.012205412
231	0x3cfc54a5	0.03080208
232	0xbd61bb88	-0.055110484
233	0xbd054460	-0.03253591
234	0x3d6d8b21	0.05799401
235	0xbdcebf63	-0.10095098
236	0xbd36b0db	-0.044602256
237	0x3dee292b	0.11628946
238	0xbde014a2	-0.109414354
239	0xbc3c7ca0	-0.011504322
240	0xbc8f6ac0	-0.017506957
241	0x3bf85769	0.0075787795
242	0xbc678b15	-0.014132281
243	0xbda5e1f5	-0.080997385
244	0x3d08531b	0.03328238
245	0xbd713fa9	-0.0588986
246	0xbd873824	-0.06602505
247	0x3ca3ed97	0.020010753
248	0x3ae909f8	0.001777946
249	0x3dafb2b7	0.08579009
250	0xba119c85	-0.0005554634
251	0x3dbc489b	0.09193536
252	0x3d18fb96	0.037349306
253	0x3df25428	0.11832458
254	0x3d020fc7	0.031753328
255	0xbd189ac8	-0.037256986

conv2.bias f4 [32]
0	0xbccb42db	-0.024812153
1	0x3d707e8f	0.058714446
2	0x3d5021e6	0.050813578
3	0xbcc194e6	-0.02363057
4	0xbd8c14f2	-0.068399325
5	0xbdbfad32	-0.09359206
6	0xbb034320	-0.0020029023
7	0xbd50516e	-0.050858907
8	0x3d5924c7	0.05301359
9	0xbd436499	-0.04770336
10	0x3da83375	0.0821294
11	0xbd8699c3	-0.065722965
12	0xbd23c3eb	-0.039981764
13	0xbd61377b	-0.05498455
14	0xbd0ec1e6	-0.034852885
15	0x3d4a0c45	0.049328107
16	0xbd8c39d7	-0.068469696
17	0x3cfcc3a1	0.030855002
18	0x3b968871	0.004593902
19	0x3ae6fe53	0.0017623402
20	0x3d63e021	0.055633668
21	0x3d3f4bd4	0.046703175
22	0x3d283d4b	0.04107408
23	0x3db06de1	0.08614708
24	0x3d3cd46a	0.04610101
25	0x3d50fe83	0.05102397
26	0xbd01f3bb	-0.03172658
27	0x3c15c20c	0.009140503
28	0xbbfb4adc	-0.007668836
29	0x3d222e80	0.039595127
30	0xbd07750e	-0.033070616
31	0xbcf46af5	-0.029836157

fc1.weight f4 [64, 1152]
0	0x3cdd0264	0.026978679
1	0xbc3b4258	-0.011429392
2	0xbb486256	-0.003057619
3	0xbc148bcc	-0.009066533
4	0xbc671e22	-0.014106305
5	0x3cdb8aca	0.026799578
6	0xbc92b4db	-0.017908504
7	0xbb9f2258	-0.004856389
8	0xbd160215	-0.03662308
9	0x3c2d11da	0.010563338
10	0xbb2d41cb	-0.002643692
11	0xbc5439e9	-0.01295326
12	0x3bfc3fc4	0.007698031
13	0xbce5becf	-0.028045086
14	0xbbe215b4	-0.00689956
15	0xbc670165	-0.014099454
16	0xbb48c024	-0.0030632103
17	0xbc4da877	-0.012552372
18	0xbcabcd15	-0.020971814
19	0x3c6ac74b	0.014329742
20	0x3c1f881f	0.009737044
21	0xbc4fe127	-0.012687958
22	0x3c76007d	0.015014765
23	0xbd0205db	-0.031743865
24	0xbd04e836	-0.032448016
25	0x3bd885af	0.006607733
26	0xbc2e619e	-0.010643391
27	0x3c9b767c	0.018977396
28	0xbc93befd	-0.018035406
29	0xbca668b7	-0.020313604
30	0x3b9a4d91	0.0047089537
31	0xbc85d304	-0.016335972
32	0xbb546d62	-0.003241383
33	0xbb3b1174	-0.0028544338
34	0xbbdab079	-0.006673869
35	0xbca34b7d	-0.019933457
36	0x3ca1a7d1	0.019733341
37	0xbbc229f8	-0.005925413
38	0xbc2daad8	-0.010599814
39	0x3c3f16f4	0.011663187
40	0xbcfeee4a	-0.031119484
41	0x3b655912	0.0034995717
42	0x3bb7a420	0.005604282
43	0xbd188472	-0.037235685
44	0x3bc4d4c5	0.0060068094
45	0xbc91728c	-0.017754816
46	0xbd1240c7	-0.035706308
47	0xbb632af2	-0.0034663049
48	0xbc23421a	-0.00996449
49	0x3bd8ca4c	0.0066159125
50	0xbd27df73	-0.040984582
51	0x3ad0e1d6	0.0015936445
52	0xbb9f0875	-0.004853303
53	0x3cff2d1a	0.031149436
54	0x3c9f8da7	0.019476725
55	0xbca6aad1	-0.020345123
56	0xbbd4dba0	-0.006495908
57	0xbbb0864f	-0.0053871046
58	0xbbadaf79	-0.005300459
59	0xbc290fcb	-0.010318707
60	0xbba2ee77	-0.004972275
61	0x3c0fdd4f	0.008780791
62	0xbbfc0bd6	-0.0076918406
63	0xbbc34140	-0.005958706
64	0xbca579b8	-0.020199642
65	0xbcf298f6	-0.029613953
66	0xbbf7d432	-0.0075631374
67	0xbcca638d	-0.024705673
68	0xbc24d0e5	-0.01005957
69	0xbbeb07fc	-0.0071725827
70	0x3c5e90b8	0.013584308
71	0x3c39eb1b	0.011347557
72	0xbcc36c4b	-0.023855349
73	0xbcb99908	-0.022655979
74	0x3bff7fdd	0.007797225
75	0xbc945263	-0.018105691
76	0xbcfb1648	-0.030650273
77	0xbc1fee14	-0.009761352
78	0xbd0f5800	-0.034996033
79	0xbc3d2912	-0.011545436
80	0xbcbc8664	-0.023013301
81	0xbd1142d6	-0.03546413
82	0x3b1eea28	0.0024248455
83	0xbd1c4965	-0.038155932
84	0xbc370860	-0.01117143
85	0xbc0cbbb4	-0.008589674
86	0x3cb1d982	0.021710161
87	0xbd04b5d0	-0.032399952
88	0x3c52b175	0.012859692
89	0xbc7c8ab8	-0.0154139325
90	0xbc81a32d	-0.015824879
91	0xbcd74b71	-0.02628109
92	0xbcabe5ee	-0.020983662
93	0x3b2960e7	0.0025845112
94	0xbcc82b83	-0.02443481
95	0x3c26456a	0.010148386
96	0xb8c1da54	-9.243624e-05
97	0xbc8543e2	-0.01626772
98	0xbb7d1179	-0.003861515
99	0x3c800fea	0.015632588
100	0x3bffa01e	0.00780107
101	0xbd0fd652	-0.0351165
102	0xbc2acd63	-0.010424945
103	0x3ca7baef	0.02047488
104	0xbcc59d26	-0.024122786
105	0x3ae8d3fc	0.0017763372
106	0x3be5eaa0	0.007016495
107	0x3c524f4a	0.012836287
108	0xbc786afd	-0.015162227
109	0xbcab53f5	-0.020914057
110	0xbc670495	-0.014100214
111	0x3cbbd550	0.022928864
112	0x3c4d928a	0.012547145
113	0xbc429887	-0.011877186
114	0x3b169787	0.00229785
115	0xbd13f60e	-0.036123328
116	0xbc7c09e6	-0.015383219
117	0xbcef1280	-0.029183626
118	0x3cc62ec0	0.024192214
119	0xbd1c5ef2	-0.038176484
120	0xbac5e984	-0.00150995
121	0x3c1dd4e3	0.009633276
122	0x3c17e14b	0.009270023
123	0x3c0cefb9	0.008602076
124	0xbbc5ab27	-0.006032366
125	0xbcd2cebc	-0.025733344
126	0x3bce8515	0.0063024857
127	0xbb48164c	-0.0030530868
128	0x3c8fa158	0.01753299
129	0xbc0c862d	-0.008576912
130	0xbd14774a	-0.036246575
131	0xbcdf6251	-0.02726856
132	0x3ca5c081	0.020233395
133	0xbc9b1ee2	-0.018935625
134	0x3cc44b1f	0.023961602
135	0x3a1d5dac	0.0006003033
136	0x3c2badc6	0.010478443
137	0xbc3364e7	-0.01094935
138	0xbc5155c4	-0.012776796
139	0xbbbebd92	-0.0058209384
140	0xbc7b0434	-0.015320826
141	0x3a979d54	0.0011567273
142	0x3c527b7a	0.012846822
143	0xbac0cd5a	-0.0014709637
144	0xbcbe968c	-0.023265146
145	0x3c9b9c48	0.01899542
146	0xbc4faf8e	-0.012676133
147	0xbc195691	-0.009359018
148	0xbab75add	-0.0013988871
149	0xbc894988	-0.016758695
150	0xbc1d569e	-0.009603171
151	0xbb860f83	-0.0040912046
152	0xbc0e19fe	-0.008673189
153	0x3d22f253	0.03978188
154	0xbb3c27c1	-0.0028710219
155	0xbd0f1257	-0.0349296
156	0xbce77827	-0.028255535
157	0x3bd26c04	0.006421568
158	0x3c678688	0.014131196
159	0x3cd595ab	0.026072344
160	0xbc65153c	-0.013982113
161	0x3c8cc81a	0.01718526
162	0xbb6d1bdb	-0.0036179933
163	0x3b767038	0.0037603509
164	0x3c973667	0.018458558
165	0xbae51957	-0.0017478865
166	0xbcd67890	-0.026180536
167	0xbb984f37	-0.004648115
168	0x3c40ee3c	0.0117755495
169	0x3c38e92d	0.011286062
170	0xbca2ba40	-0.019864202
171	0xbcc12e79	-0.02358173
172	0xbcab629a	-0.02092104
173	0xbc6703ff	-0.014100074
174	0x3b8d0701	0.0043038134
175	0x3ae38435	0.0017358126
176	0xbc17b424	-0.009259257
177	0x3c6d7489	0.014493116
178	0x3c87dfc0	0.016586185
179	0xbcd2b7cd	-0.025722409
180	0xbcb89cd0	-0.022535712
181	0xbc5c3033	-0.013439226
182	0xbcc4eed3	-0.024039662
183	0x3c200889	0.00976766
184	0x3c85bda0	0.016325772
185	0x3c794b4a	0.015215704
186	0x3c16b079	0.009197348
187	0xbd1080b0	-0.035278976
188	0x3cbc70ed	0.023003066
189	0x3c748469	0.014924147
190	0x3c07db3c	0.008292016
191	0xbc6d5464	-0.014485452
192	0x3b28069f	0.0025638712
193	0xbb876e49	-0.00413302
194	0xbc9c0f26	-0.019050192
195	0xbc8114d4	-0.015757002
196	0xbcf97312	-0.030450378
197	0xbb92a680	-0.0044754148
198	0xbcc92a45	-0.024556288
199	0x3c1c04fc	0.009522673
200	0x3c545679	0.01296007
201	0x3c642d04	0.013926748
202	0xbaa24b8f	-0.0012382137
203	0x3b48ab2d	0.0030619607
204	0x3c744708	0.014909513
205	0x3bd6fdaa	0.006561001
206	0x3bb3648d	0.005474633
207	0xbbb1dfb3	-0.0054282784
208	0xbcbe39a9	-0.023220854
209	0xbce6fdcc	-0.028197192
210	0x3c5c1760	0.013433307
211	0x3ab9d99d	0.0014179234
212	0xbc806e9e	-0.015677746
213	0xbc7936d2	-0.015210824
214	0x3c3575c9	0.011075445
215	0xbc7c8e9e	-0.015414862
216	0xbbc341b5	-0.0059587606
217	0xbc5697bf	-0.0130977025
218	0x3b3132ae	0.0027038264
219	0x3b742a35	0.0037256603
220	0xbd0daf31	-0.034590904
221	0x3ce8ce70	0.02841875
222	0x3c83988d	0.016063953
223	0xbcade1cd	-0.021225834
224	0xbca26180	-0.019821882
225	0x3a0bae9c	0.0005328448
226	0x3c5b9a31	0.013403461
227	0xbc9e4839	-0.019321548
228	0x3bb1c5a6	0.005425173
229	0xbab7afb4	-0.0014014156
230	0xbb8aa893	-0.0042315214
231	0x3bd6834e	0.0065464145
232	0x3c76b4ac	0.015057724
233	0x3cc43458	0.02395074
234	0xbc38afc1	-0.011272372
235	0xbc7a9d69	-0.015296319
236	0x3c3c2119	0.0114825005
237	0xbc5ccf37	-0.013477138
238	0x3c0d2ce8	0.0086166635
239	0xbca2b1a4	-0.019860096
240	0xbd1242b5	-0.035708148
241	0x3c9cda82	0.019147161
242	0xbbce973c	-0.0063046496
243	0xbc9c5765	-0.019084642
244	0xbc6b9662	-0.014379116
245	0xbb94acd0	-0.0045372024
246	0xbc97dea1	-0.018538775
247	0x3cc5c769	0.024142938
248	0xba50ed94	-0.0007969972
249	0xbcae2b85	-0.021260986
250	0xbc82963f	-0.015940784
251	0x3c41936b	0.011814932
252	0xbbc235d4	-0.005926827
253	0xbc06a840	-0.008218825
254	0xbcb58c07	-0.022161497
255	0x3c8aa0d6	0.016922396

fc1.bias f4 [64]
0	0x3ca16381	0.019700767
1	0x3a8b812d	0.0010643356
2	0xbc2f4061	-0.0106965015
3	0x3c81920c	0.01581671
4	0x3c46b699	0.012128496
5	0xbce5d886	-0.028057348
6	0x3c20c13d	0.009811697
7	0x3cbe0d1c	0.02319961
8	0xbc985697	-0.018595977
9	0xbc88155d	-0.01661175
10	0x3c36aab6	0.011149099
11	0x3b2386a9	0.002495209
12	0x3cd71965	0.026257226
13	0x3c53a778	0.012918346
14	0xbceac692	-0.028659139
15	0x3bf14ff5	0.007364268
16	0xbca5fdae	-0.020262565
17	0xbca810cf	-0.020515827
18	0xbc74dcdc	-0.014945235
19	0x3c58030c	0.01318432
20	0xbcc12b15	-0.023580113
21	0xbc9672c0	-0.018365264
22	0xbb986aef	-0.0046514194
23	0x3c0bb2ff	0.008526563
24	0xbb5f734b	-0.003409582
25	0xbc879c9b	-0.016554167
26	0x3cf6a526	0.030108046
27	0xbc1be602	-0.009515287
28	0x3c7ca7da	0.015420878
29	0xbbe0e7f2	-0.0068635875
30	0xbbc33603	-0.0059573664
31	0x3c4edbe4	0.012625668
32	0x3c5f414c	0.013626408
33	0x3c8462c8	0.016160384
34	0x3bbfc4fc	0.00585234
35	0x3b3adff2	0.002851483
36	0x3b69bcb4	0.0035665454
37	0xbcb15a16	-0.021649402
38	0xbcae66a8	-0.021289185
39	0xbc2f8c70	-0.010714635
40	0xbc6d6aad	-0.0144907655
41	0x3c878113	0.01654104
42	0x3c87ba89	0.01656844
43	0xbcef5dc4	-0.029219516
44	0x3cc1e262	0.023667518
45	0xbc9cc7d7	-0.01913826
46	0xbc9ba2ec	-0.018998586
47	0x3bfa5ab8	0.007640209
48	0xbb998b91	-0.004685827
49	0xbc98f9c1	-0.01867378
50	0x3c6f3148	0.014599152
51	0xbc8dda9e	-0.017316159
52	0x3c7d7534	0.015469838
53	0xbc6b4262	-0.014359089
54	0xbbf6c186	-0.007530394
55	0xbbcd649e	-0.006268098
56	0xbc80e292	-0.015733037
57	0x3c5cadd6	0.01346918
58	0x3c3f1820	0.011663467
59	0x3c262461	0.010140509
60	0xbb090b9a	-0.0020911456
61	0xbc911973	-0.01771233
62	0xbc4b0a9a	-0.012392664
63	0xbca938ba	-0.020656932

fc2.weight f4 [4, 64]
0	0x3d2fc295	0.042910177
1	0xbdd66383	-0.10468199
2	0x3d557eab	0.052122753
3	0xbd4d5ca1	-0.050137166
4	0xbc5a9129	-0.013340273
5	0xbddfa556	-0.10920207
6	0xbd9083e5	-0.07056407
7	0xbc98cbdb	-0.018651893
8	0xbc1c6b02	-0.009546997
9	0x3af44c64	0.0018638489
10	0x3db664c5	0.08905939
11	0xbd03e5cb	-0.03220157
12	0xbe1fcb6a	-0.1560494
13	0x3d69fcc1	0.05712581
14	0xbe405aa4	-0.18784577
15	0x3df102a9	0.117680855
16	0x3d775419	0.060382936
17	0xbd2823f0	-0.041049898
18	0x3b6ffbc0	0.003661856
19	0x3de743d0	0.11292231
20	0x3d275eb4	0.0408618
21	0x3da3b385	0.07993225
22	0xbddb0387	-0.10694032
23	0xbe2ce290	-0.16883302
24	0x3dfdbb21	0.12389208
25	0x3deaec3d	0.1147084
26	0x3c974bd0	0.018468767
27	0x3dca4e6d	0.0987824
28	0xbdfda8f4	-0.12385741
29	0x3d59a76e	0.05313819
30	0xbdc76c2c	-0.09737429
31	0x3d91c795	0.071181454
32	0xbc7c2dd5	-0.015391787
33	0x3dbf6254	0.093449265
34	0x3dfc2a36	0.123127386
35	0x3c67a92e	0.014139457
36	0x3db931cb	0.090427004
37	0xbd21fcec	-0.039547846
38	0x3e25cd66	0.16191635
39	0xbd4832be	-0.048876517
40	0x3d79069c	0.06079732
41	0xbd82b0ec	-0.063814014
42	0xba9f629d	-0.0012160126
43	0x3d7b755c	0.06139122
44	0xbd3fbc29	-0.046810303
45	0xbe0a1055	-0.13482793
46	0xbde1a255	-0.110172905
47	0xbdb14e55	-0.08657519
48	0x3d70bde3	0.05877484
49	0xbd828e0e	-0.06374751
50	0x3e240726	0.16018352
51	0x3498514a	2.8371352e-07
52	0xbdc7b16a	-0.09750636
53	0x3c8c3bc2	0.017118338
54	0xbd654f2c	-0.055983707
55	0x3dc2ca81	0.09511281
56	0xbc11720d	-0.0088772895
57	0xbd820860	-0.06349254
58	0x3db426e3	0.087964796
59	0x3dc2301d	0.09481833
60	0x3db09f3f	0.08624124
61	0x3d556b90	0.052104533
62	0x3d18b1a4	0.037278786
63	0x3ddf200f	0.108947866
64	0xbd956661	-0.07294918
65	0x3d7916ff	0.060812946
66	0xbd316f32	-0.043318935
67	0x3d255e6d	0.040373255
68	0x3d94daee	0.0726832
69	0xbc7712d5	-0.0150801735
70	0x3d441eaf	0.047880825
71	0xbde14353	-0.10999169
72	0x3ce489c6	0.027897727
73	0x3ad05560	0.0015894584
74	0x3d86c504	0.065805465
75	0x3e2656cb	0.16244046
76	0xbde3a8d7	-0.11116188
77	0xbdea27ec	-0.11433396
78	0x3e11726b	0.14203803
79	0xbd769ce7	-0.060208227
80	0xbd1f907b	-0.038956147
81	0xbbadde44	-0.005306037
82	0x3dfc1463	0.12308576
83	0x3d8bb960	0.06822467
84	0x3cec8928	0.028873995
85	0xbd534edc	-0.051588878
86	0xbb6c9834	-0.0036101462
87	0x3d2bafb2	0.041915603
88	0x3d573e3c	0.052549586
89	0xbd97df4e	-0.07415639
90	0x3e18162a	0.14852205
91	0xbdc7ae2e	-0.09750019
92	0x3d430aba	0.04761765
93	0x3d5c50e0	0.053788066
94	0xbd70486d	-0.05866282
95	0xbe1f396e	-0.15549251
96	0x3d07f51f	0.03319275
97	0xbc6cf8ba	-0.014463598
98	0xbd490e4c	-0.0490859
99	0xbd38f835	-0.045158584
100	0xbdfed337	-0.1244263
101	0xbd1456c9	-0.036215577
102	0x3d232500	0.039830208
103	0xbd5b60c4	-0.05355908
104	0x3b55e0ac	0.0032635136
105	0x3d8b666a	0.06806643
106	0x3dca73fe	0.09885405
107	0xbdb4e5a0	-0.0883286
108	0xbdc809e2	-0.0976751
109	0xbd3aeef1	-0.04563803
110	0x3deccfa1	0.115630396
111	0xbd270fd0	-0.040786564
112	0x3dd4dbe1	0.10393501
113	0x3d8ba4bd	0.06818531
114	0xbdce5ffe	-0.10076903
115	0xb30dd18a	-3.3019695e-08
116	0xbd7c33a6	-0.061572693
117	0x3d84c302	0.06482507
118	0x3db5fb6b	0.08885845
119	0x3d287728	0.04112926
120	0xbd9dddaa	-0.07708295
121	0xbd6afccd	-0.057369996
122	0xbc9ce31b	-0.019151261
123	0x3ccb499b	0.024815371
124	0x3da17a3e	0.07884644
125	0xbd909d27	-0.070612244
126	0xbbe1bd88	-0.006889049
127	0xbdd55920	-0.1041739
128	0x3dfae809	0.122512884
129	0x3cf9c0b5	0.030487398
130	0x3cc49f4a	0.024001736
131	0x3e0c4689	0.13698782
132	0x3d7b730c	0.061389014
133	0xbd97e1be	-0.07416104
134	0x3da8b962	0.08238484
135	0xbda6a383	-0.08136656
136	0xbe2af649	-0.16695513
137	0xbd09f2ff	-0.033679005
138	0xbcbe5632	-0.02323446
139	0x3e09c329	0.13453354
140	0x3d2e47b6	0.042548858
141	0x3d9e591c	0.0773184
142	0xbe0430ba	-0.12909213
143	0xbe3fee23	-0.18743186
144	0x3a22bd66	0.0006208032
145	0xbe442e12	-0.191582
146	0x3d8a53f4	0.06754294
147	0x3e075d79	0.1321925
148	0xbc6e624c	-0.014549803
149	0x3d621fc8	0.05520609
150	0x3dbcbf32	0.09216155
151	0x3d0f1805	0.034935016
152	0xbc8c473f	-0.017123817
153	0x3dc3bff3	0.09558096
154	0xbdd14e51	-0.10220016
155	0xbbc96f84	-0.006147327
156	0xbd2041f7	-0.03912541
157	0xbe0cba57	-0.13742958
158	0x3ce05d9a	0.027388383
159	0xbe275008	-0.16339123
160	0xbca54e14	-0.020178832
161	0x3dba836d	0.09107099
162	0x3b645154	0.0034838514
163	0xbd78203a	-0.06057761
164	0xbccc2b68	-0.024923041
165	0x3d918748	0.07105881
166	0xbdf1af3f	-0.11801004
167	0x3cde94db	0.02717059
168	0x3d2ca3c5	0.04214837
169	0xbd023653	-0.03179009
170	0xbcdc8cc0	-0.026922584
171	0xbda4080f	-0.080093496
172	0x3db1b323	0.08676746
173	0x3dd87b18	0.10570353
174	0x3dc146c5	0.09437326
175	0x3dcaa3f0	0.0989455
176	0xbd66d4ba	-0.056355216
177	0x3d5fa220	0.054597974
178	0x3d3bb06a	0.04582254
179	0xbbf83d21	-0.0075756465
180	0xbc0a2e87	-0.008433945
181	0xbdceae22	-0.10091807
182	0x3df9ccd7	0.12197273
183	0xbddedd49	-0.108820505
184	0xbc9f95fe	-0.019480702
185	0xbc26a0a4	-0.010170136
186	0xbe1d6ced	-0.15373583
187	0x3d640f86	0.055678867
188	0xbd88c54d	-0.06678257
189	0x3c7965f6	0.015222063
190	0x3dbf3ea0	0.09338117
191	0xbd12c72b	-0.035834473
192	0x3dcbf68a	0.09959133
193	0x3dbf3bc9	0.09337575
194	0xbd81dd21	-0.06341005
195	0xbdd9ee39	-0.106411405
196	0xbdd8ca1b	-0.105854236
197	0x3c0664a0	0.008202702
198	0x3daa3d5e	0.08312486
199	0x3e259426	0.16169795
200	0x3e04767b	0.12935822
201	0xbc91762f	-0.01775655
202	0x3d83b48c	0.06430921
203	0x3ca9ae18	0.020712897
204	0xbe29ccbb	-0.16582005
205	0x3d9d13a8	0.07669765
206	0xbd98e225	-0.07465009
207	0x3de2b5f4	0.11069861
208	0x3d16b40f	0.03679281
209	0xbc248606	-0.010041719
210	0xbdda0cb3	-0.106469534
211	0xbe2094bd	-0.15681739
212	0x3d2ef863	0.04271735
213	0x3afb5f06	0.00191781
214	0x3ddb933c	0.10721442
215	0xbde263bd	-0.1105418
216	0x3e07e004	0.13269049
217	0x3dd0204b	0.101624094
218	0xbd5a6e44	-0.053327814
219	0x3cf87929	0.030331211
220	0x3e099826	0.13436946
221	0x3dde31c9	0.108493395
222	0x3de66151	0.112490304
223	0xbc41eb7d	-0.01183593
224	0x3ddbaa2f	0.10725819
225	0xbd5bd645	-0.05367114
226	0xbe3e2c08	-0.18571484
227	0x3b2d9e8d	0.0026492209
228	0x3d040d33	0.03223915
229	0x3dd4ed78	0.10396856
230	0xbda63ed5	-0.08117453
231	0x3c78a63e	0.015176354
232	0xbcbfe3d8	-0.023424074
233	0x3c13c34b	0.009018729
234	0xbe019bd7	-0.12657104
235	0x3e1933c4	0.14961153
236	0xbd99c328	-0.07507926
237	0xbe3011a1	-0.17194225
238	0xbce12660	-0.027484119
239	0xbde00773	-0.10938921
240	0xbda4ac67	-0.08040696
241	0xbe271586	-0.16316804
242	0xbdb9b298	-0.09067267
243	0x30c1f631	1.411257e-09
244	0xbe3f7d91	-0.18700244
245	0xbc9d379d	-0.019191558
246	0xbda9a39a	-0.08283158
247	0xbdf38d19	-0.118921466
248	0x3d26960c	0.04067044
249	0xbe481d18	-0.19542348
250	0x3db8bea9	0.090207405
251	0x3defab72	0.117026225
252	0x3dbd09d0	0.09230387
253	0xbd02377d	-0.0317912
254	0xbe095da7	-0.13414632
255	0x3dbe98b4	0.093064696

fc2.bias f4 [4]
0	0xbd0403b0	-0.03223008
1	0xbb2c6bd2	-0.0026309383
2	0x3d04b772	0.03240151
3	0xbd8727f7	-0.065994196
